…
I0417 14:37:54.653733 18410 net.cpp:294] The NetState phase (0) differed from the phase (1) specified by a rule in layer accuracy
I0417 14:37:54.653861 18410 net.cpp:51] Initializing net from parameters: 
state {
  phase: TRAIN
  level: 0
  stage: ""
}
layer {
  name: "data"
  type: "Data"
  top: "data"
  top: "label"
  include {
    phase: TRAIN
  }
  transform_param {
    mirror: true
    crop_size: 227
    mean_file: "/home/kb/PlantVillage_Caffe/lmdb/mean.binaryproto"
  }
  data_param {
    source: "/home/kb/PlantVillage_Caffe/lmdb/train_lmdb"
    batch_size: 100
    backend: LMDB
  }
}
layer {
  name: "conv1"
  type: "Convolution"
  bottom: "data"
  top: "conv1"
  param {
    lr_mult: 1
    decay_mult: 1
  }
  param {
    lr_mult: 2
    decay_mult: 0
  }
  convolution_param {
    num_output: 96
    kernel_size: 11
    stride: 4
    weight_filler {
      type: "gaussian"
      std: 0.01
    }
    bias_filler {
      type: "constant"
      value: 0
    }
  }
}
layer {
  name: "relu1"
  type: "ReLU"
  bottom: "conv1"
  top: "conv1"
}
layer {
  name: "norm1"
  type: "LRN"
  bottom: "conv1"
  top: "norm1"
  lrn_param {
    local_size: 5
    alpha: 0.0001
    beta: 0.75
  }
}
layer {
  name: "pool1"
  type: "Pooling"
  bottom: "norm1"
  top: "pool1"
  pooling_param {
    pool: MAX
    kernel_size: 3
    stride: 2
  }
}
layer {
  name: "conv2"
  type: "Convolution"
  bottom: "pool1"
  top: "conv2"
  param {
    lr_mult: 1
    decay_mult: 1
  }
  param {
    lr_mult: 2
    decay_mult: 0
  }
  convolution_param {
    num_output: 256
    pad: 2
    kernel_size: 5
    group: 2
    weight_filler {
      type: "gaussian"
      std: 0.01
    }
    bias_filler {
      type: "constant"
      value: 0.1
    }
  }
}
layer {
  name: "relu2"
  type: "ReLU"
  bottom: "conv2"
  top: "conv2"
}
layer {
  name: "norm2"
  type: "LRN"
  bottom: "conv2"
  top: "norm2"
  lrn_param {
    local_size: 5
    alpha: 0.0001
    beta: 0.75
  }
}
layer {
  name: "pool2"
  type: "Pooling"
  bottom: "norm2"
  top: "pool2"
  pooling_param {
    pool: MAX
    kernel_size: 3
    stride: 2
  }
}
layer {
  name: "conv3"
  type: "Convolution"
  bottom: "pool2"
  top: "conv3"
  param {
    lr_mult: 1
    decay_mult: 1
  }
  param {
    lr_mult: 2
    decay_mult: 0
  }
  convolution_param {
    num_output: 384
    pad: 1
    kernel_size: 3
    weight_filler {
      type: "gaussian"
      std: 0.01
    }
    bias_filler {
      type: "constant"
      value: 0
    }
  }
}
layer {
  name: "relu3"
  type: "ReLU"
  bottom: "conv3"
  top: "conv3"
}
layer {
  name: "conv4"
  type: "Convolution"
  bottom: "conv3"
  top: "conv4"
  param {
    lr_mult: 1
    decay_mult: 1
  }
  param {
    lr_mult: 2
    decay_mult: 0
  }
  convolution_param {
    num_output: 384
    pad: 1
    kernel_size: 3
    group: 2
    weight_filler {
      type: "gaussian"
      std: 0.01
    }
    bias_filler {
      type: "constant"
      value: 0.1
    }
  }
}
layer {
  name: "relu4"
  type: "ReLU"
  bottom: "conv4"
  top: "conv4"
}
layer {
  name: "conv5"
  type: "Convolution"
  bottom: "conv4"
  top: "conv5"
  param {
    lr_mult: 1
    decay_mult: 1
  }
  param {
    lr_mult: 2
    decay_mult: 0
  }
  convolution_param {
    num_output: 256
    pad: 1
    kernel_size: 3
    group: 2
    weight_filler {
      type: "gaussian"
      std: 0.01
    }
    bias_filler {
      type: "constant"
      value: 0.1
    }
  }
}
layer {
  name: "relu5"
  type: "ReLU"
  bottom: "conv5"
  top: "conv5"
}
layer {
  name: "pool5"
  type: "Pooling"
  bottom: "conv5"
  top: "pool5"
  pooling_param {
    pool: MAX
    kernel_size: 3
    stride: 2
  }
}
layer {
  name: "fc6"
  type: "InnerProduct"
  bottom: "pool5"
  top: "fc6"
  param {
    lr_mult: 1
    decay_mult: 1
  }
  param {
    lr_mult: 2
    decay_mult: 0
  }
  inner_product_param {
    num_output: 4096
    weight_filler {
      type: "gaussian"
      std: 0.005
    }
    bias_filler {
      type: "constant"
      value: 0.1
    }
  }
}
layer {
  name: "relu6"
  type: "ReLU"
  bottom: "fc6"
  top: "fc6"
}
layer {
  name: "drop6"
  type: "Dropout"
  bottom: "fc6"
  top: "fc6"
  dropout_param {
    dropout_ratio: 0.5
  }
}
layer {
  name: "fc7"
  type: "InnerProduct"
  bottom: "fc6"
  top: "fc7"
  param {
    lr_mult: 1
    decay_mult: 1
  }
  param {
    lr_mult: 2
    decay_mult: 0
  }
  inner_product_param {
    num_output: 4096
    weight_filler {
      type: "gaussian"
      std: 0.005
    }
    bias_filler {
      type: "constant"
      value: 0.1
    }
  }
}
layer {
  name: "relu7"
  type: "ReLU"
  bottom: "fc7"
  top: "fc7"
}
layer {
  name: "drop7"
  type: "Dropout"
  bottom: "fc7"
  top: "fc7"
  dropout_param {
    dropout_ratio: 0.5
  }
}
layer {
  name: "fc8_plantvillage"
  type: "InnerProduct"
  bottom: "fc7"
  top: "fc8_plantvillage"
  param {
    lr_mult: 1
    decay_mult: 1
  }
  param {
    lr_mult: 2
    decay_mult: 0
  }
  inner_product_param {
    num_output: 38
    weight_filler {
      type: "gaussian"
      std: 0.01
    }
    bias_filler {
      type: "constant"
      value: 0
    }
  }
}
layer {
  name: "loss"
  type: "SoftmaxWithLoss"
  bottom: "fc8_plantvillage"
  bottom: "label"
  top: "loss"
}
I0417 14:37:54.653946 18410 layer_factory.hpp:77] Creating layer data
I0417 14:37:54.654057 18410 db_lmdb.cpp:35] Opened lmdb /home/kb/PlantVillage_Caffe/lmdb/train_lmdb
I0417 14:37:54.654075 18410 net.cpp:84] Creating Layer data
I0417 14:37:54.654080 18410 net.cpp:380] data -> data
I0417 14:37:54.654098 18410 net.cpp:380] data -> label
I0417 14:37:54.654109 18410 data_transformer.cpp:25] Loading mean file from: /home/kb/PlantVillage_Caffe/lmdb/mean.binaryproto
I0417 14:37:54.656042 18410 data_layer.cpp:45] output data size: 100,3,227,227
I0417 14:37:54.746992 18410 net.cpp:122] Setting up data
I0417 14:37:54.747017 18410 net.cpp:129] Top shape: 100 3 227 227 (15458700)
I0417 14:37:54.747021 18410 net.cpp:129] Top shape: 100 (100)
I0417 14:37:54.747025 18410 net.cpp:137] Memory required for data: 61835200
I0417 14:37:54.747030 18410 layer_factory.hpp:77] Creating layer conv1
I0417 14:37:54.747057 18410 net.cpp:84] Creating Layer conv1
I0417 14:37:54.747063 18410 net.cpp:406] conv1 <- data
I0417 14:37:54.747084 18410 net.cpp:380] conv1 -> conv1
I0417 14:37:55.045382 18410 net.cpp:122] Setting up conv1
I0417 14:37:55.045406 18410 net.cpp:129] Top shape: 100 96 55 55 (29040000)
I0417 14:37:55.045409 18410 net.cpp:137] Memory required for data: 177995200
I0417 14:37:55.045424 18410 layer_factory.hpp:77] Creating layer relu1
I0417 14:37:55.045444 18410 net.cpp:84] Creating Layer relu1
I0417 14:37:55.045447 18410 net.cpp:406] relu1 <- conv1
I0417 14:37:55.045451 18410 net.cpp:367] relu1 -> conv1 (in-place)
I0417 14:37:55.045830 18410 net.cpp:122] Setting up relu1
I0417 14:37:55.045838 18410 net.cpp:129] Top shape: 100 96 55 55 (29040000)
I0417 14:37:55.045841 18410 net.cpp:137] Memory required for data: 294155200
I0417 14:37:55.045843 18410 layer_factory.hpp:77] Creating layer norm1
I0417 14:37:55.045851 18410 net.cpp:84] Creating Layer norm1
I0417 14:37:55.045874 18410 net.cpp:406] norm1 <- conv1
I0417 14:37:55.045878 18410 net.cpp:380] norm1 -> norm1
I0417 14:37:55.046346 18410 net.cpp:122] Setting up norm1
I0417 14:37:55.046355 18410 net.cpp:129] Top shape: 100 96 55 55 (29040000)
I0417 14:37:55.046357 18410 net.cpp:137] Memory required for data: 410315200
I0417 14:37:55.046360 18410 layer_factory.hpp:77] Creating layer pool1
I0417 14:37:55.046365 18410 net.cpp:84] Creating Layer pool1
I0417 14:37:55.046367 18410 net.cpp:406] pool1 <- norm1
I0417 14:37:55.046370 18410 net.cpp:380] pool1 -> pool1
I0417 14:37:55.046411 18410 net.cpp:122] Setting up pool1
I0417 14:37:55.046430 18410 net.cpp:129] Top shape: 100 96 27 27 (6998400)
I0417 14:37:55.046432 18410 net.cpp:137] Memory required for data: 438308800
I0417 14:37:55.046434 18410 layer_factory.hpp:77] Creating layer conv2
I0417 14:37:55.046442 18410 net.cpp:84] Creating Layer conv2
I0417 14:37:55.046443 18410 net.cpp:406] conv2 <- pool1
I0417 14:37:55.046447 18410 net.cpp:380] conv2 -> conv2
I0417 14:37:55.055518 18410 net.cpp:122] Setting up conv2
I0417 14:37:55.055527 18410 net.cpp:129] Top shape: 100 256 27 27 (18662400)
I0417 14:37:55.055531 18410 net.cpp:137] Memory required for data: 512958400
I0417 14:37:55.055536 18410 layer_factory.hpp:77] Creating layer relu2
I0417 14:37:55.055541 18410 net.cpp:84] Creating Layer relu2
I0417 14:37:55.055543 18410 net.cpp:406] relu2 <- conv2
I0417 14:37:55.055546 18410 net.cpp:367] relu2 -> conv2 (in-place)
I0417 14:37:55.055683 18410 net.cpp:122] Setting up relu2
I0417 14:37:55.055690 18410 net.cpp:129] Top shape: 100 256 27 27 (18662400)
I0417 14:37:55.055702 18410 net.cpp:137] Memory required for data: 587608000
I0417 14:37:55.055704 18410 layer_factory.hpp:77] Creating layer norm2
I0417 14:37:55.055708 18410 net.cpp:84] Creating Layer norm2
I0417 14:37:55.055711 18410 net.cpp:406] norm2 <- conv2
I0417 14:37:55.055713 18410 net.cpp:380] norm2 -> norm2
I0417 14:37:55.056071 18410 net.cpp:122] Setting up norm2
I0417 14:37:55.056078 18410 net.cpp:129] Top shape: 100 256 27 27 (18662400)
I0417 14:37:55.056090 18410 net.cpp:137] Memory required for data: 662257600
I0417 14:37:55.056093 18410 layer_factory.hpp:77] Creating layer pool2
I0417 14:37:55.056098 18410 net.cpp:84] Creating Layer pool2
I0417 14:37:55.056100 18410 net.cpp:406] pool2 <- norm2
I0417 14:37:55.056103 18410 net.cpp:380] pool2 -> pool2
I0417 14:37:55.056141 18410 net.cpp:122] Setting up pool2
I0417 14:37:55.056149 18410 net.cpp:129] Top shape: 100 256 13 13 (4326400)
I0417 14:37:55.056152 18410 net.cpp:137] Memory required for data: 679563200
I0417 14:37:55.056155 18410 layer_factory.hpp:77] Creating layer conv3
I0417 14:37:55.056164 18410 net.cpp:84] Creating Layer conv3
I0417 14:37:55.056167 18410 net.cpp:406] conv3 <- pool2
I0417 14:37:55.056172 18410 net.cpp:380] conv3 -> conv3
I0417 14:37:55.078019 18410 net.cpp:122] Setting up conv3
I0417 14:37:55.078037 18410 net.cpp:129] Top shape: 100 384 13 13 (6489600)
I0417 14:37:55.078039 18410 net.cpp:137] Memory required for data: 705521600
I0417 14:37:55.078048 18410 layer_factory.hpp:77] Creating layer relu3
I0417 14:37:55.078055 18410 net.cpp:84] Creating Layer relu3
I0417 14:37:55.078068 18410 net.cpp:406] relu3 <- conv3
I0417 14:37:55.078073 18410 net.cpp:367] relu3 -> conv3 (in-place)
I0417 14:37:55.078207 18410 net.cpp:122] Setting up relu3
I0417 14:37:55.078212 18410 net.cpp:129] Top shape: 100 384 13 13 (6489600)
I0417 14:37:55.078214 18410 net.cpp:137] Memory required for data: 731480000
I0417 14:37:55.078217 18410 layer_factory.hpp:77] Creating layer conv4
I0417 14:37:55.078224 18410 net.cpp:84] Creating Layer conv4
I0417 14:37:55.078227 18410 net.cpp:406] conv4 <- conv3
I0417 14:37:55.078230 18410 net.cpp:380] conv4 -> conv4
I0417 14:37:55.094986 18410 net.cpp:122] Setting up conv4
I0417 14:37:55.094996 18410 net.cpp:129] Top shape: 100 384 13 13 (6489600)
I0417 14:37:55.094998 18410 net.cpp:137] Memory required for data: 757438400
I0417 14:37:55.095002 18410 layer_factory.hpp:77] Creating layer relu4
I0417 14:37:55.095008 18410 net.cpp:84] Creating Layer relu4
I0417 14:37:55.095033 18410 net.cpp:406] relu4 <- conv4
I0417 14:37:55.095037 18410 net.cpp:367] relu4 -> conv4 (in-place)
I0417 14:37:55.095381 18410 net.cpp:122] Setting up relu4
I0417 14:37:55.095389 18410 net.cpp:129] Top shape: 100 384 13 13 (6489600)
I0417 14:37:55.095391 18410 net.cpp:137] Memory required for data: 783396800
I0417 14:37:55.095394 18410 layer_factory.hpp:77] Creating layer conv5
I0417 14:37:55.095402 18410 net.cpp:84] Creating Layer conv5
I0417 14:37:55.095404 18410 net.cpp:406] conv5 <- conv4
I0417 14:37:55.095407 18410 net.cpp:380] conv5 -> conv5
I0417 14:37:55.108916 18410 net.cpp:122] Setting up conv5
I0417 14:37:55.108933 18410 net.cpp:129] Top shape: 100 256 13 13 (4326400)
I0417 14:37:55.108937 18410 net.cpp:137] Memory required for data: 800702400
I0417 14:37:55.108947 18410 layer_factory.hpp:77] Creating layer relu5
I0417 14:37:55.108955 18410 net.cpp:84] Creating Layer relu5
I0417 14:37:55.108961 18410 net.cpp:406] relu5 <- conv5
I0417 14:37:55.108968 18410 net.cpp:367] relu5 -> conv5 (in-place)
I0417 14:37:55.109339 18410 net.cpp:122] Setting up relu5
I0417 14:37:55.109350 18410 net.cpp:129] Top shape: 100 256 13 13 (4326400)
I0417 14:37:55.109354 18410 net.cpp:137] Memory required for data: 818008000
I0417 14:37:55.109359 18410 layer_factory.hpp:77] Creating layer pool5
I0417 14:37:55.109365 18410 net.cpp:84] Creating Layer pool5
I0417 14:37:55.109369 18410 net.cpp:406] pool5 <- conv5
I0417 14:37:55.109375 18410 net.cpp:380] pool5 -> pool5
I0417 14:37:55.109411 18410 net.cpp:122] Setting up pool5
I0417 14:37:55.109416 18410 net.cpp:129] Top shape: 100 256 6 6 (921600)
I0417 14:37:55.109418 18410 net.cpp:137] Memory required for data: 821694400
I0417 14:37:55.109421 18410 layer_factory.hpp:77] Creating layer fc6
I0417 14:37:55.109431 18410 net.cpp:84] Creating Layer fc6
I0417 14:37:55.109434 18410 net.cpp:406] fc6 <- pool5
I0417 14:37:55.109438 18410 net.cpp:380] fc6 -> fc6
I0417 14:37:55.966883 18410 net.cpp:122] Setting up fc6
I0417 14:37:55.966907 18410 net.cpp:129] Top shape: 100 4096 (409600)
I0417 14:37:55.966912 18410 net.cpp:137] Memory required for data: 823332800
I0417 14:37:55.966918 18410 layer_factory.hpp:77] Creating layer relu6
I0417 14:37:55.966928 18410 net.cpp:84] Creating Layer relu6
I0417 14:37:55.966931 18410 net.cpp:406] relu6 <- fc6
I0417 14:37:55.966936 18410 net.cpp:367] relu6 -> fc6 (in-place)
I0417 14:37:55.967157 18410 net.cpp:122] Setting up relu6
I0417 14:37:55.967165 18410 net.cpp:129] Top shape: 100 4096 (409600)
I0417 14:37:55.967167 18410 net.cpp:137] Memory required for data: 824971200
I0417 14:37:55.967170 18410 layer_factory.hpp:77] Creating layer drop6
I0417 14:37:55.967180 18410 net.cpp:84] Creating Layer drop6
I0417 14:37:55.967182 18410 net.cpp:406] drop6 <- fc6
I0417 14:37:55.967186 18410 net.cpp:367] drop6 -> fc6 (in-place)
I0417 14:37:55.967234 18410 net.cpp:122] Setting up drop6
I0417 14:37:55.967239 18410 net.cpp:129] Top shape: 100 4096 (409600)
I0417 14:37:55.967242 18410 net.cpp:137] Memory required for data: 826609600
I0417 14:37:55.967253 18410 layer_factory.hpp:77] Creating layer fc7
I0417 14:37:55.967262 18410 net.cpp:84] Creating Layer fc7
I0417 14:37:55.967263 18410 net.cpp:406] fc7 <- fc6
I0417 14:37:55.967267 18410 net.cpp:380] fc7 -> fc7
I0417 14:37:56.348565 18410 net.cpp:122] Setting up fc7
I0417 14:37:56.348587 18410 net.cpp:129] Top shape: 100 4096 (409600)
I0417 14:37:56.348590 18410 net.cpp:137] Memory required for data: 828248000
I0417 14:37:56.348598 18410 layer_factory.hpp:77] Creating layer relu7
I0417 14:37:56.348606 18410 net.cpp:84] Creating Layer relu7
I0417 14:37:56.348610 18410 net.cpp:406] relu7 <- fc7
I0417 14:37:56.348615 18410 net.cpp:367] relu7 -> fc7 (in-place)
I0417 14:37:56.349097 18410 net.cpp:122] Setting up relu7
I0417 14:37:56.349107 18410 net.cpp:129] Top shape: 100 4096 (409600)
I0417 14:37:56.349110 18410 net.cpp:137] Memory required for data: 829886400
I0417 14:37:56.349112 18410 layer_factory.hpp:77] Creating layer drop7
I0417 14:37:56.349119 18410 net.cpp:84] Creating Layer drop7
I0417 14:37:56.349134 18410 net.cpp:406] drop7 <- fc7
I0417 14:37:56.349141 18410 net.cpp:367] drop7 -> fc7 (in-place)
I0417 14:37:56.349198 18410 net.cpp:122] Setting up drop7
I0417 14:37:56.349203 18410 net.cpp:129] Top shape: 100 4096 (409600)
I0417 14:37:56.349205 18410 net.cpp:137] Memory required for data: 831524800
I0417 14:37:56.349222 18410 layer_factory.hpp:77] Creating layer fc8_plantvillage
I0417 14:37:56.349228 18410 net.cpp:84] Creating Layer fc8_plantvillage
I0417 14:37:56.349243 18410 net.cpp:406] fc8_plantvillage <- fc7
I0417 14:37:56.349246 18410 net.cpp:380] fc8_plantvillage -> fc8_plantvillage
I0417 14:37:56.353106 18410 net.cpp:122] Setting up fc8_plantvillage
I0417 14:37:56.353114 18410 net.cpp:129] Top shape: 100 38 (3800)
I0417 14:37:56.353116 18410 net.cpp:137] Memory required for data: 831540000
I0417 14:37:56.353121 18410 layer_factory.hpp:77] Creating layer loss
I0417 14:37:56.353128 18410 net.cpp:84] Creating Layer loss
I0417 14:37:56.353130 18410 net.cpp:406] loss <- fc8_plantvillage
I0417 14:37:56.353133 18410 net.cpp:406] loss <- label
I0417 14:37:56.353137 18410 net.cpp:380] loss -> loss
I0417 14:37:56.353158 18410 layer_factory.hpp:77] Creating layer loss
…
I0417 14:37:56.354009 18410 solver.cpp:172] Creating test net (#0) specified by net file: /home/kb/PlantVillage_Caffe/AlexNet/train_val.prototxt
I0417 14:37:56.354063 18410 net.cpp:294] The NetState phase (1) differed from the phase (0) specified by a rule in layer data
I0417 14:37:56.354181 18410 net.cpp:51] Initializing net from parameters: 
state {
  phase: TEST
}
layer {
  name: "data"
  type: "Data"
  top: "data"
  top: "label"
  include {
    phase: TEST
  }
  transform_param {
    crop_size: 227
    mean_file: "/home/kb/PlantVillage_Caffe/lmdb/mean.binaryproto"
  }
  data_param {
    source: "/home/kb/PlantVillage_Caffe/lmdb/val_lmdb"
    batch_size: 100
    backend: LMDB
  }
}
layer {
  name: "conv1"
  type: "Convolution"
  bottom: "data"
  top: "conv1"
  param {
    lr_mult: 1
    decay_mult: 1
  }
  param {
    lr_mult: 2
    decay_mult: 0
  }
  convolution_param {
    num_output: 96
    kernel_size: 11
    stride: 4
    weight_filler {
      type: "gaussian"
      std: 0.01
    }
    bias_filler {
      type: "constant"
      value: 0
    }
  }
}
layer {
  name: "relu1"
  type: "ReLU"
  bottom: "conv1"
  top: "conv1"
}
layer {
  name: "norm1"
  type: "LRN"
  bottom: "conv1"
  top: "norm1"
  lrn_param {
    local_size: 5
    alpha: 0.0001
    beta: 0.75
  }
}
layer {
  name: "pool1"
  type: "Pooling"
  bottom: "norm1"
  top: "pool1"
  pooling_param {
    pool: MAX
    kernel_size: 3
    stride: 2
  }
}
layer {
  name: "conv2"
  type: "Convolution"
  bottom: "pool1"
  top: "conv2"
  param {
    lr_mult: 1
    decay_mult: 1
  }
  param {
    lr_mult: 2
    decay_mult: 0
  }
  convolution_param {
    num_output: 256
    pad: 2
    kernel_size: 5
    group: 2
    weight_filler {
      type: "gaussian"
      std: 0.01
    }
    bias_filler {
      type: "constant"
      value: 0.1
    }
  }
}
layer {
  name: "relu2"
  type: "ReLU"
  bottom: "conv2"
  top: "conv2"
}
layer {
  name: "norm2"
  type: "LRN"
  bottom: "conv2"
  top: "norm2"
  lrn_param {
    local_size: 5
    alpha: 0.0001
    beta: 0.75
  }
}
layer {
  name: "pool2"
  type: "Pooling"
  bottom: "norm2"
  top: "pool2"
  pooling_param {
    pool: MAX
    kernel_size: 3
    stride: 2
  }
}
layer {
  name: "conv3"
  type: "Convolution"
  bottom: "pool2"
  top: "conv3"
  param {
    lr_mult: 1
    decay_mult: 1
  }
  param {
    lr_mult: 2
    decay_mult: 0
  }
  convolution_param {
    num_output: 384
    pad: 1
    kernel_size: 3
    weight_filler {
      type: "gaussian"
      std: 0.01
    }
    bias_filler {
      type: "constant"
      value: 0
    }
  }
}
layer {
  name: "relu3"
  type: "ReLU"
  bottom: "conv3"
  top: "conv3"
}
layer {
  name: "conv4"
  type: "Convolution"
  bottom: "conv3"
  top: "conv4"
  param {
    lr_mult: 1
    decay_mult: 1
  }
  param {
    lr_mult: 2
    decay_mult: 0
  }
  convolution_param {
    num_output: 384
    pad: 1
    kernel_size: 3
    group: 2
    weight_filler {
      type: "gaussian"
      std: 0.01
    }
    bias_filler {
      type: "constant"
      value: 0.1
    }
  }
}
layer {
  name: "relu4"
  type: "ReLU"
  bottom: "conv4"
  top: "conv4"
}
layer {
  name: "conv5"
  type: "Convolution"
  bottom: "conv4"
  top: "conv5"
  param {
    lr_mult: 1
    decay_mult: 1
  }
  param {
    lr_mult: 2
    decay_mult: 0
  }
  convolution_param {
    num_output: 256
    pad: 1
    kernel_size: 3
    group: 2
    weight_filler {
      type: "gaussian"
      std: 0.01
    }
    bias_filler {
      type: "constant"
      value: 0.1
    }
  }
}
layer {
  name: "relu5"
  type: "ReLU"
  bottom: "conv5"
  top: "conv5"
}
layer {
  name: "pool5"
  type: "Pooling"
  bottom: "conv5"
  top: "pool5"
  pooling_param {
    pool: MAX
    kernel_size: 3
    stride: 2
  }
}
layer {
  name: "fc6"
  type: "InnerProduct"
  bottom: "pool5"
  top: "fc6"
  param {
    lr_mult: 1
    decay_mult: 1
  }
  param {
    lr_mult: 2
    decay_mult: 0
  }
  inner_product_param {
    num_output: 4096
    weight_filler {
      type: "gaussian"
      std: 0.005
    }
    bias_filler {
      type: "constant"
      value: 0.1
    }
  }
}
layer {
  name: "relu6"
  type: "ReLU"
  bottom: "fc6"
  top: "fc6"
}
layer {
  name: "drop6"
  type: "Dropout"
  bottom: "fc6"
  top: "fc6"
  dropout_param {
    dropout_ratio: 0.5
  }
}
layer {
  name: "fc7"
  type: "InnerProduct"
  bottom: "fc6"
  top: "fc7"
  param {
    lr_mult: 1
    decay_mult: 1
  }
  param {
    lr_mult: 2
    decay_mult: 0
  }
  inner_product_param {
    num_output: 4096
    weight_filler {
      type: "gaussian"
      std: 0.005
    }
    bias_filler {
      type: "constant"
      value: 0.1
    }
  }
}
layer {
  name: "relu7"
  type: "ReLU"
  bottom: "fc7"
  top: "fc7"
}
layer {
  name: "drop7"
  type: "Dropout"
  bottom: "fc7"
  top: "fc7"
  dropout_param {
    dropout_ratio: 0.5
  }
}
layer {
  name: "fc8_plantvillage"
  type: "InnerProduct"
  bottom: "fc7"
  top: "fc8_plantvillage"
  param {
    lr_mult: 1
    decay_mult: 1
  }
  param {
    lr_mult: 2
    decay_mult: 0
  }
  inner_product_param {
    num_output: 38
    weight_filler {
      type: "gaussian"
      std: 0.01
    }
    bias_filler {
      type: "constant"
      value: 0
    }
  }
}
layer {
  name: "loss"
  type: "SoftmaxWithLoss"
  bottom: "fc8_plantvillage"
  bottom: "label"
  top: "loss"
}
layer {
  name: "accuracy"
  type: "Accuracy"
  bottom: "fc8_plantvillage"
  bottom: "label"
  top: "accuracy"
  include {
    phase: TEST
  }
}
I0417 14:37:56.354269 18410 layer_factory.hpp:77] Creating layer data
I0417 14:37:56.354305 18410 db_lmdb.cpp:35] Opened lmdb /home/kb/PlantVillage_Caffe/lmdb/val_lmdb
I0417 14:37:56.354315 18410 net.cpp:84] Creating Layer data
I0417 14:37:56.354317 18410 net.cpp:380] data -> data
I0417 14:37:56.354326 18410 net.cpp:380] data -> label
I0417 14:37:56.354331 18410 data_transformer.cpp:25] Loading mean file from: /home/kb/PlantVillage_Caffe/lmdb/mean.binaryproto
I0417 14:37:56.355738 18410 data_layer.cpp:45] output data size: 100,3,227,227
I0417 14:37:56.445543 18410 net.cpp:122] Setting up data
I0417 14:37:56.445564 18410 net.cpp:129] Top shape: 100 3 227 227 (15458700)
I0417 14:37:56.445569 18410 net.cpp:129] Top shape: 100 (100)
I0417 14:37:56.445571 18410 net.cpp:137] Memory required for data: 61835200
I0417 14:37:56.445576 18410 layer_factory.hpp:77] Creating layer label_data_1_split
I0417 14:37:56.445590 18410 net.cpp:84] Creating Layer label_data_1_split
I0417 14:37:56.445595 18410 net.cpp:406] label_data_1_split <- label
I0417 14:37:56.445610 18410 net.cpp:380] label_data_1_split -> label_data_1_split_0
I0417 14:37:56.445627 18410 net.cpp:380] label_data_1_split -> label_data_1_split_1
I0417 14:37:56.445744 18410 net.cpp:122] Setting up label_data_1_split
I0417 14:37:56.445750 18410 net.cpp:129] Top shape: 100 (100)
I0417 14:37:56.445763 18410 net.cpp:129] Top shape: 100 (100)
I0417 14:37:56.445765 18410 net.cpp:137] Memory required for data: 61836000
I0417 14:37:56.445768 18410 layer_factory.hpp:77] Creating layer conv1
I0417 14:37:56.445778 18410 net.cpp:84] Creating Layer conv1
I0417 14:37:56.445782 18410 net.cpp:406] conv1 <- data
I0417 14:37:56.445796 18410 net.cpp:380] conv1 -> conv1
I0417 14:37:56.452917 18410 net.cpp:122] Setting up conv1
I0417 14:37:56.452930 18410 net.cpp:129] Top shape: 100 96 55 55 (29040000)
I0417 14:37:56.452934 18410 net.cpp:137] Memory required for data: 177996000
I0417 14:37:56.452942 18410 layer_factory.hpp:77] Creating layer relu1
I0417 14:37:56.452949 18410 net.cpp:84] Creating Layer relu1
I0417 14:37:56.452951 18410 net.cpp:406] relu1 <- conv1
I0417 14:37:56.452955 18410 net.cpp:367] relu1 -> conv1 (in-place)
I0417 14:37:56.453397 18410 net.cpp:122] Setting up relu1
I0417 14:37:56.453407 18410 net.cpp:129] Top shape: 100 96 55 55 (29040000)
I0417 14:37:56.453409 18410 net.cpp:137] Memory required for data: 294156000
I0417 14:37:56.453413 18410 layer_factory.hpp:77] Creating layer norm1
I0417 14:37:56.453419 18410 net.cpp:84] Creating Layer norm1
I0417 14:37:56.453423 18410 net.cpp:406] norm1 <- conv1
I0417 14:37:56.453426 18410 net.cpp:380] norm1 -> norm1
I0417 14:37:56.453879 18410 net.cpp:122] Setting up norm1
I0417 14:37:56.453889 18410 net.cpp:129] Top shape: 100 96 55 55 (29040000)
I0417 14:37:56.453891 18410 net.cpp:137] Memory required for data: 410316000
I0417 14:37:56.453894 18410 layer_factory.hpp:77] Creating layer pool1
I0417 14:37:56.453900 18410 net.cpp:84] Creating Layer pool1
I0417 14:37:56.453902 18410 net.cpp:406] pool1 <- norm1
I0417 14:37:56.453907 18410 net.cpp:380] pool1 -> pool1
I0417 14:37:56.453938 18410 net.cpp:122] Setting up pool1
I0417 14:37:56.453943 18410 net.cpp:129] Top shape: 100 96 27 27 (6998400)
I0417 14:37:56.453946 18410 net.cpp:137] Memory required for data: 438309600
I0417 14:37:56.453948 18410 layer_factory.hpp:77] Creating layer conv2
I0417 14:37:56.453955 18410 net.cpp:84] Creating Layer conv2
I0417 14:37:56.453974 18410 net.cpp:406] conv2 <- pool1
I0417 14:37:56.453981 18410 net.cpp:380] conv2 -> conv2
I0417 14:37:56.464648 18410 net.cpp:122] Setting up conv2
I0417 14:37:56.464678 18410 net.cpp:129] Top shape: 100 256 27 27 (18662400)
I0417 14:37:56.464680 18410 net.cpp:137] Memory required for data: 512959200
I0417 14:37:56.464690 18410 layer_factory.hpp:77] Creating layer relu2
I0417 14:37:56.464699 18410 net.cpp:84] Creating Layer relu2
I0417 14:37:56.464701 18410 net.cpp:406] relu2 <- conv2
I0417 14:37:56.464705 18410 net.cpp:367] relu2 -> conv2 (in-place)
I0417 14:37:56.464874 18410 net.cpp:122] Setting up relu2
I0417 14:37:56.464880 18410 net.cpp:129] Top shape: 100 256 27 27 (18662400)
I0417 14:37:56.464892 18410 net.cpp:137] Memory required for data: 587608800
I0417 14:37:56.464895 18410 layer_factory.hpp:77] Creating layer norm2
I0417 14:37:56.464902 18410 net.cpp:84] Creating Layer norm2
I0417 14:37:56.464905 18410 net.cpp:406] norm2 <- conv2
I0417 14:37:56.464908 18410 net.cpp:380] norm2 -> norm2
I0417 14:37:56.465322 18410 net.cpp:122] Setting up norm2
I0417 14:37:56.465332 18410 net.cpp:129] Top shape: 100 256 27 27 (18662400)
I0417 14:37:56.465343 18410 net.cpp:137] Memory required for data: 662258400
I0417 14:37:56.465347 18410 layer_factory.hpp:77] Creating layer pool2
I0417 14:37:56.465351 18410 net.cpp:84] Creating Layer pool2
I0417 14:37:56.465354 18410 net.cpp:406] pool2 <- norm2
I0417 14:37:56.465358 18410 net.cpp:380] pool2 -> pool2
I0417 14:37:56.465399 18410 net.cpp:122] Setting up pool2
I0417 14:37:56.465402 18410 net.cpp:129] Top shape: 100 256 13 13 (4326400)
I0417 14:37:56.465404 18410 net.cpp:137] Memory required for data: 679564000
I0417 14:37:56.465406 18410 layer_factory.hpp:77] Creating layer conv3
I0417 14:37:56.465414 18410 net.cpp:84] Creating Layer conv3
I0417 14:37:56.465427 18410 net.cpp:406] conv3 <- pool2
I0417 14:37:56.465432 18410 net.cpp:380] conv3 -> conv3
I0417 14:37:56.487632 18410 net.cpp:122] Setting up conv3
I0417 14:37:56.487655 18410 net.cpp:129] Top shape: 100 384 13 13 (6489600)
I0417 14:37:56.487659 18410 net.cpp:137] Memory required for data: 705522400
I0417 14:37:56.487673 18410 layer_factory.hpp:77] Creating layer relu3
I0417 14:37:56.487684 18410 net.cpp:84] Creating Layer relu3
I0417 14:37:56.487692 18410 net.cpp:406] relu3 <- conv3
I0417 14:37:56.487710 18410 net.cpp:367] relu3 -> conv3 (in-place)
I0417 14:37:56.487857 18410 net.cpp:122] Setting up relu3
I0417 14:37:56.487865 18410 net.cpp:129] Top shape: 100 384 13 13 (6489600)
I0417 14:37:56.487877 18410 net.cpp:137] Memory required for data: 731480800
I0417 14:37:56.487880 18410 layer_factory.hpp:77] Creating layer conv4
I0417 14:37:56.487889 18410 net.cpp:84] Creating Layer conv4
I0417 14:37:56.487890 18410 net.cpp:406] conv4 <- conv3
I0417 14:37:56.487895 18410 net.cpp:380] conv4 -> conv4
I0417 14:37:56.515671 18410 net.cpp:122] Setting up conv4
I0417 14:37:56.515699 18410 net.cpp:129] Top shape: 100 384 13 13 (6489600)
I0417 14:37:56.515703 18410 net.cpp:137] Memory required for data: 757439200
I0417 14:37:56.515709 18410 layer_factory.hpp:77] Creating layer relu4
I0417 14:37:56.515717 18410 net.cpp:84] Creating Layer relu4
I0417 14:37:56.515719 18410 net.cpp:406] relu4 <- conv4
I0417 14:37:56.515723 18410 net.cpp:367] relu4 -> conv4 (in-place)
I0417 14:37:56.516089 18410 net.cpp:122] Setting up relu4
I0417 14:37:56.516098 18410 net.cpp:129] Top shape: 100 384 13 13 (6489600)
I0417 14:37:56.516110 18410 net.cpp:137] Memory required for data: 783397600
I0417 14:37:56.516113 18410 layer_factory.hpp:77] Creating layer conv5
I0417 14:37:56.516120 18410 net.cpp:84] Creating Layer conv5
I0417 14:37:56.516122 18410 net.cpp:406] conv5 <- conv4
I0417 14:37:56.516126 18410 net.cpp:380] conv5 -> conv5
I0417 14:37:56.528203 18410 net.cpp:122] Setting up conv5
I0417 14:37:56.528234 18410 net.cpp:129] Top shape: 100 256 13 13 (4326400)
I0417 14:37:56.528237 18410 net.cpp:137] Memory required for data: 800703200
I0417 14:37:56.528247 18410 layer_factory.hpp:77] Creating layer relu5
I0417 14:37:56.528255 18410 net.cpp:84] Creating Layer relu5
I0417 14:37:56.528272 18410 net.cpp:406] relu5 <- conv5
I0417 14:37:56.528280 18410 net.cpp:367] relu5 -> conv5 (in-place)
I0417 14:37:56.528657 18410 net.cpp:122] Setting up relu5
I0417 14:37:56.528666 18410 net.cpp:129] Top shape: 100 256 13 13 (4326400)
I0417 14:37:56.528677 18410 net.cpp:137] Memory required for data: 818008800
I0417 14:37:56.528681 18410 layer_factory.hpp:77] Creating layer pool5
I0417 14:37:56.528687 18410 net.cpp:84] Creating Layer pool5
I0417 14:37:56.528689 18410 net.cpp:406] pool5 <- conv5
I0417 14:37:56.528693 18410 net.cpp:380] pool5 -> pool5
I0417 14:37:56.528728 18410 net.cpp:122] Setting up pool5
I0417 14:37:56.528733 18410 net.cpp:129] Top shape: 100 256 6 6 (921600)
I0417 14:37:56.528735 18410 net.cpp:137] Memory required for data: 821695200
I0417 14:37:56.528738 18410 layer_factory.hpp:77] Creating layer fc6
I0417 14:37:56.528743 18410 net.cpp:84] Creating Layer fc6
I0417 14:37:56.528746 18410 net.cpp:406] fc6 <- pool5
I0417 14:37:56.528749 18410 net.cpp:380] fc6 -> fc6
I0417 14:37:57.389902 18410 net.cpp:122] Setting up fc6
I0417 14:37:57.389925 18410 net.cpp:129] Top shape: 100 4096 (409600)
I0417 14:37:57.389927 18410 net.cpp:137] Memory required for data: 823333600
I0417 14:37:57.389935 18410 layer_factory.hpp:77] Creating layer relu6
I0417 14:37:57.389942 18410 net.cpp:84] Creating Layer relu6
I0417 14:37:57.389945 18410 net.cpp:406] relu6 <- fc6
I0417 14:37:57.389950 18410 net.cpp:367] relu6 -> fc6 (in-place)
I0417 14:37:57.390156 18410 net.cpp:122] Setting up relu6
I0417 14:37:57.390162 18410 net.cpp:129] Top shape: 100 4096 (409600)
I0417 14:37:57.390164 18410 net.cpp:137] Memory required for data: 824972000
I0417 14:37:57.390166 18410 layer_factory.hpp:77] Creating layer drop6
I0417 14:37:57.390172 18410 net.cpp:84] Creating Layer drop6
I0417 14:37:57.390173 18410 net.cpp:406] drop6 <- fc6
I0417 14:37:57.390177 18410 net.cpp:367] drop6 -> fc6 (in-place)
I0417 14:37:57.390210 18410 net.cpp:122] Setting up drop6
I0417 14:37:57.390214 18410 net.cpp:129] Top shape: 100 4096 (409600)
I0417 14:37:57.390216 18410 net.cpp:137] Memory required for data: 826610400
I0417 14:37:57.390218 18410 layer_factory.hpp:77] Creating layer fc7
I0417 14:37:57.390223 18410 net.cpp:84] Creating Layer fc7
I0417 14:37:57.390228 18410 net.cpp:406] fc7 <- fc6
I0417 14:37:57.390230 18410 net.cpp:380] fc7 -> fc7
I0417 14:37:57.771714 18410 net.cpp:122] Setting up fc7
I0417 14:37:57.771737 18410 net.cpp:129] Top shape: 100 4096 (409600)
I0417 14:37:57.771740 18410 net.cpp:137] Memory required for data: 828248800
I0417 14:37:57.771747 18410 layer_factory.hpp:77] Creating layer relu7
I0417 14:37:57.771756 18410 net.cpp:84] Creating Layer relu7
I0417 14:37:57.771760 18410 net.cpp:406] relu7 <- fc7
I0417 14:37:57.771765 18410 net.cpp:367] relu7 -> fc7 (in-place)
I0417 14:37:57.772243 18410 net.cpp:122] Setting up relu7
I0417 14:37:57.772251 18410 net.cpp:129] Top shape: 100 4096 (409600)
I0417 14:37:57.772253 18410 net.cpp:137] Memory required for data: 829887200
I0417 14:37:57.772255 18410 layer_factory.hpp:77] Creating layer drop7
I0417 14:37:57.772261 18410 net.cpp:84] Creating Layer drop7
I0417 14:37:57.772264 18410 net.cpp:406] drop7 <- fc7
I0417 14:37:57.772267 18410 net.cpp:367] drop7 -> fc7 (in-place)
I0417 14:37:57.772305 18410 net.cpp:122] Setting up drop7
I0417 14:37:57.772320 18410 net.cpp:129] Top shape: 100 4096 (409600)
I0417 14:37:57.772321 18410 net.cpp:137] Memory required for data: 831525600
I0417 14:37:57.772323 18410 layer_factory.hpp:77] Creating layer fc8_plantvillage
I0417 14:37:57.772339 18410 net.cpp:84] Creating Layer fc8_plantvillage
I0417 14:37:57.772341 18410 net.cpp:406] fc8_plantvillage <- fc7
I0417 14:37:57.772346 18410 net.cpp:380] fc8_plantvillage -> fc8_plantvillage
I0417 14:37:57.776130 18410 net.cpp:122] Setting up fc8_plantvillage
I0417 14:37:57.776139 18410 net.cpp:129] Top shape: 100 38 (3800)
I0417 14:37:57.776140 18410 net.cpp:137] Memory required for data: 831540800
I0417 14:37:57.776144 18410 layer_factory.hpp:77] Creating layer fc8_plantvillage_fc8_plantvillage_0_split
I0417 14:37:57.776161 18410 net.cpp:84] Creating Layer fc8_plantvillage_fc8_plantvillage_0_split
I0417 14:37:57.776163 18410 net.cpp:406] fc8_plantvillage_fc8_plantvillage_0_split <- fc8_plantvillage
I0417 14:37:57.776167 18410 net.cpp:380] fc8_plantvillage_fc8_plantvillage_0_split -> fc8_plantvillage_fc8_plantvillage_0_split_0
I0417 14:37:57.776185 18410 net.cpp:380] fc8_plantvillage_fc8_plantvillage_0_split -> fc8_plantvillage_fc8_plantvillage_0_split_1
I0417 14:37:57.776222 18410 net.cpp:122] Setting up fc8_plantvillage_fc8_plantvillage_0_split
I0417 14:37:57.776226 18410 net.cpp:129] Top shape: 100 38 (3800)
I0417 14:37:57.776229 18410 net.cpp:129] Top shape: 100 38 (3800)
I0417 14:37:57.776232 18410 net.cpp:137] Memory required for data: 831571200
I0417 14:37:57.776233 18410 layer_factory.hpp:77] Creating layer loss
I0417 14:37:57.776238 18410 net.cpp:84] Creating Layer loss
I0417 14:37:57.776252 18410 net.cpp:406] loss <- fc8_plantvillage_fc8_plantvillage_0_split_0
I0417 14:37:57.776253 18410 net.cpp:406] loss <- label_data_1_split_0
I0417 14:37:57.776257 18410 net.cpp:380] loss -> loss
…
