…
I0422 19:44:56.849304  4815 net.cpp:294] The NetState phase (0) differed from the phase (1) specified by a rule in layer accuracy/top5
I0422 19:44:56.849421  4815 net.cpp:51] Initializing net from parameters: 
name: "VGG_ILSVRC_16_layers"
state {
  phase: TRAIN
  level: 0
  stage: ""
}
layer {
  name: "data"
  type: "Data"
  top: "data"
  top: "label"
  include {
    phase: TRAIN
  }
  transform_param {
    mirror: true
    crop_size: 224
    mean_file: "/home/kb/PlantVillage_Caffe/lmdb/mean.binaryproto"
  }
  data_param {
    source: "/home/kb/PlantVillage_Caffe/lmdb/train_lmdb"
    batch_size: 16
    backend: LMDB
  }
}
layer {
  name: "conv1_1"
  type: "Convolution"
  bottom: "data"
  top: "conv1_1"
  param {
    lr_mult: 0
  }
  param {
    lr_mult: 0
  }
  convolution_param {
    num_output: 64
    pad: 1
    kernel_size: 3
  }
}
layer {
  name: "relu1_1"
  type: "ReLU"
  bottom: "conv1_1"
  top: "conv1_1"
}
layer {
  name: "conv1_2"
  type: "Convolution"
  bottom: "conv1_1"
  top: "conv1_2"
  param {
    lr_mult: 0
  }
  param {
    lr_mult: 0
  }
  convolution_param {
    num_output: 64
    pad: 1
    kernel_size: 3
  }
}
layer {
  name: "relu1_2"
  type: "ReLU"
  bottom: "conv1_2"
  top: "conv1_2"
}
layer {
  name: "pool1"
  type: "Pooling"
  bottom: "conv1_2"
  top: "pool1"
  pooling_param {
    pool: MAX
    kernel_size: 2
    stride: 2
  }
}
layer {
  name: "conv2_1"
  type: "Convolution"
  bottom: "pool1"
  top: "conv2_1"
  param {
    lr_mult: 0
  }
  param {
    lr_mult: 0
  }
  convolution_param {
    num_output: 128
    pad: 1
    kernel_size: 3
  }
}
layer {
  name: "relu2_1"
  type: "ReLU"
  bottom: "conv2_1"
  top: "conv2_1"
}
layer {
  name: "conv2_2"
  type: "Convolution"
  bottom: "conv2_1"
  top: "conv2_2"
  param {
    lr_mult: 0
  }
  param {
    lr_mult: 0
  }
  convolution_param {
    num_output: 128
    pad: 1
    kernel_size: 3
  }
}
layer {
  name: "relu2_2"
  type: "ReLU"
  bottom: "conv2_2"
  top: "conv2_2"
}
layer {
  name: "pool2"
  type: "Pooling"
  bottom: "conv2_2"
  top: "pool2"
  pooling_param {
    pool: MAX
    kernel_size: 2
    stride: 2
  }
}
layer {
  name: "conv3_1"
  type: "Convolution"
  bottom: "pool2"
  top: "conv3_1"
  param {
    lr_mult: 0
  }
  param {
    lr_mult: 0
  }
  convolution_param {
    num_output: 256
    pad: 1
    kernel_size: 3
  }
}
layer {
  name: "relu3_1"
  type: "ReLU"
  bottom: "conv3_1"
  top: "conv3_1"
}
layer {
  name: "conv3_2"
  type: "Convolution"
  bottom: "conv3_1"
  top: "conv3_2"
  param {
    lr_mult: 0
  }
  param {
    lr_mult: 0
  }
  convolution_param {
    num_output: 256
    pad: 1
    kernel_size: 3
  }
}
layer {
  name: "relu3_2"
  type: "ReLU"
  bottom: "conv3_2"
  top: "conv3_2"
}
layer {
  name: "conv3_3"
  type: "Convolution"
  bottom: "conv3_2"
  top: "conv3_3"
  param {
    lr_mult: 0
  }
  param {
    lr_mult: 0
  }
  convolution_param {
    num_output: 256
    pad: 1
    kernel_size: 3
  }
}
layer {
  name: "relu3_3"
  type: "ReLU"
  bottom: "conv3_3"
  top: "conv3_3"
}
layer {
  name: "pool3"
  type: "Pooling"
  bottom: "conv3_3"
  top: "pool3"
  pooling_param {
    pool: MAX
    kernel_size: 2
    stride: 2
  }
}
layer {
  name: "conv4_1"
  type: "Convolution"
  bottom: "pool3"
  top: "conv4_1"
  param {
    lr_mult: 0
  }
  param {
    lr_mult: 0
  }
  convolution_param {
    num_output: 512
    pad: 1
    kernel_size: 3
  }
}
layer {
  name: "relu4_1"
  type: "ReLU"
  bottom: "conv4_1"
  top: "conv4_1"
}
layer {
  name: "conv4_2"
  type: "Convolution"
  bottom: "conv4_1"
  top: "conv4_2"
  param {
    lr_mult: 0
  }
  param {
    lr_mult: 0
  }
  convolution_param {
    num_output: 512
    pad: 1
    kernel_size: 3
  }
}
layer {
  name: "relu4_2"
  type: "ReLU"
  bottom: "conv4_2"
  top: "conv4_2"
}
layer {
  name: "conv4_3"
  type: "Convolution"
  bottom: "conv4_2"
  top: "conv4_3"
  param {
    lr_mult: 0
  }
  param {
    lr_mult: 0
  }
  convolution_param {
    num_output: 512
    pad: 1
    kernel_size: 3
  }
}
layer {
  name: "relu4_3"
  type: "ReLU"
  bottom: "conv4_3"
  top: "conv4_3"
}
layer {
  name: "pool4"
  type: "Pooling"
  bottom: "conv4_3"
  top: "pool4"
  pooling_param {
    pool: MAX
    kernel_size: 2
    stride: 2
  }
}
layer {
  name: "conv5_1"
  type: "Convolution"
  bottom: "pool4"
  top: "conv5_1"
  param {
    lr_mult: 0
  }
  param {
    lr_mult: 0
  }
  convolution_param {
    num_output: 512
    pad: 1
    kernel_size: 3
  }
}
layer {
  name: "relu5_1"
  type: "ReLU"
  bottom: "conv5_1"
  top: "conv5_1"
}
layer {
  name: "conv5_2"
  type: "Convolution"
  bottom: "conv5_1"
  top: "conv5_2"
  param {
    lr_mult: 0
  }
  param {
    lr_mult: 0
  }
  convolution_param {
    num_output: 512
    pad: 1
    kernel_size: 3
  }
}
layer {
  name: "relu5_2"
  type: "ReLU"
  bottom: "conv5_2"
  top: "conv5_2"
}
layer {
  name: "conv5_3"
  type: "Convolution"
  bottom: "conv5_2"
  top: "conv5_3"
  param {
    lr_mult: 0
  }
  param {
    lr_mult: 0
  }
  convolution_param {
    num_output: 512
    pad: 1
    kernel_size: 3
  }
}
layer {
  name: "relu5_3"
  type: "ReLU"
  bottom: "conv5_3"
  top: "conv5_3"
}
layer {
  name: "pool5"
  type: "Pooling"
  bottom: "conv5_3"
  top: "pool5"
  pooling_param {
    pool: MAX
    kernel_size: 2
    stride: 2
  }
}
layer {
  name: "fc6"
  type: "InnerProduct"
  bottom: "pool5"
  top: "fc6"
  param {
    lr_mult: 0
  }
  param {
    lr_mult: 0
  }
  inner_product_param {
    num_output: 4096
  }
}
layer {
  name: "relu6"
  type: "ReLU"
  bottom: "fc6"
  top: "fc6"
}
layer {
  name: "drop6"
  type: "Dropout"
  bottom: "fc6"
  top: "fc6"
  dropout_param {
    dropout_ratio: 0.5
  }
}
layer {
  name: "fc7"
  type: "InnerProduct"
  bottom: "fc6"
  top: "fc7"
  param {
    lr_mult: 0
  }
  param {
    lr_mult: 0
  }
  inner_product_param {
    num_output: 4096
  }
}
layer {
  name: "relu7"
  type: "ReLU"
  bottom: "fc7"
  top: "fc7"
}
layer {
  name: "drop7"
  type: "Dropout"
  bottom: "fc7"
  top: "fc7"
  dropout_param {
    dropout_ratio: 0.5
  }
}
layer {
  name: "fc8-pv"
  type: "InnerProduct"
  bottom: "fc7"
  top: "fc8-pv"
  param {
    lr_mult: 0
  }
  param {
    lr_mult: 0
  }
  inner_product_param {
    num_output: 38
  }
}
layer {
  name: "loss"
  type: "SoftmaxWithLoss"
  bottom: "fc8-pv"
  bottom: "label"
  top: "loss/loss"
}
I0422 19:44:56.849571  4815 layer_factory.hpp:77] Creating layer data
I0422 19:44:56.849651  4815 db_lmdb.cpp:35] Opened lmdb /home/kb/PlantVillage_Caffe/lmdb/train_lmdb
I0422 19:44:56.849675  4815 net.cpp:84] Creating Layer data
I0422 19:44:56.849684  4815 net.cpp:380] data -> data
I0422 19:44:56.849707  4815 net.cpp:380] data -> label
I0422 19:44:56.849722  4815 data_transformer.cpp:25] Loading mean file from: /home/kb/PlantVillage_Caffe/lmdb/mean.binaryproto
I0422 19:44:56.851579  4815 data_layer.cpp:45] output data size: 16,3,224,224
I0422 19:44:56.866647  4815 net.cpp:122] Setting up data
I0422 19:44:56.866672  4815 net.cpp:129] Top shape: 16 3 224 224 (2408448)
I0422 19:44:56.866706  4815 net.cpp:129] Top shape: 16 (16)
I0422 19:44:56.866710  4815 net.cpp:137] Memory required for data: 9633856
I0422 19:44:56.866727  4815 layer_factory.hpp:77] Creating layer conv1_1
I0422 19:44:56.866744  4815 net.cpp:84] Creating Layer conv1_1
I0422 19:44:56.866749  4815 net.cpp:406] conv1_1 <- data
I0422 19:44:56.866760  4815 net.cpp:380] conv1_1 -> conv1_1
I0422 19:44:57.130285  4815 net.cpp:122] Setting up conv1_1
I0422 19:44:57.130309  4815 net.cpp:129] Top shape: 16 64 224 224 (51380224)
I0422 19:44:57.130312  4815 net.cpp:137] Memory required for data: 215154752
I0422 19:44:57.130328  4815 layer_factory.hpp:77] Creating layer relu1_1
I0422 19:44:57.130339  4815 net.cpp:84] Creating Layer relu1_1
I0422 19:44:57.130342  4815 net.cpp:406] relu1_1 <- conv1_1
I0422 19:44:57.130349  4815 net.cpp:367] relu1_1 -> conv1_1 (in-place)
I0422 19:44:57.130730  4815 net.cpp:122] Setting up relu1_1
I0422 19:44:57.130738  4815 net.cpp:129] Top shape: 16 64 224 224 (51380224)
I0422 19:44:57.130741  4815 net.cpp:137] Memory required for data: 420675648
I0422 19:44:57.130743  4815 layer_factory.hpp:77] Creating layer conv1_2
I0422 19:44:57.130750  4815 net.cpp:84] Creating Layer conv1_2
I0422 19:44:57.130753  4815 net.cpp:406] conv1_2 <- conv1_1
I0422 19:44:57.130756  4815 net.cpp:380] conv1_2 -> conv1_2
I0422 19:44:57.131721  4815 net.cpp:122] Setting up conv1_2
I0422 19:44:57.131728  4815 net.cpp:129] Top shape: 16 64 224 224 (51380224)
I0422 19:44:57.131731  4815 net.cpp:137] Memory required for data: 626196544
I0422 19:44:57.131737  4815 layer_factory.hpp:77] Creating layer relu1_2
I0422 19:44:57.131742  4815 net.cpp:84] Creating Layer relu1_2
I0422 19:44:57.131743  4815 net.cpp:406] relu1_2 <- conv1_2
I0422 19:44:57.131747  4815 net.cpp:367] relu1_2 -> conv1_2 (in-place)
I0422 19:44:57.132093  4815 net.cpp:122] Setting up relu1_2
I0422 19:44:57.132102  4815 net.cpp:129] Top shape: 16 64 224 224 (51380224)
I0422 19:44:57.132103  4815 net.cpp:137] Memory required for data: 831717440
I0422 19:44:57.132107  4815 layer_factory.hpp:77] Creating layer pool1
I0422 19:44:57.132112  4815 net.cpp:84] Creating Layer pool1
I0422 19:44:57.132114  4815 net.cpp:406] pool1 <- conv1_2
I0422 19:44:57.132117  4815 net.cpp:380] pool1 -> pool1
I0422 19:44:57.132176  4815 net.cpp:122] Setting up pool1
I0422 19:44:57.132181  4815 net.cpp:129] Top shape: 16 64 112 112 (12845056)
I0422 19:44:57.132184  4815 net.cpp:137] Memory required for data: 883097664
I0422 19:44:57.132185  4815 layer_factory.hpp:77] Creating layer conv2_1
I0422 19:44:57.132189  4815 net.cpp:84] Creating Layer conv2_1
I0422 19:44:57.132191  4815 net.cpp:406] conv2_1 <- pool1
I0422 19:44:57.132194  4815 net.cpp:380] conv2_1 -> conv2_1
I0422 19:44:57.133671  4815 net.cpp:122] Setting up conv2_1
I0422 19:44:57.133679  4815 net.cpp:129] Top shape: 16 128 112 112 (25690112)
I0422 19:44:57.133682  4815 net.cpp:137] Memory required for data: 985858112
I0422 19:44:57.133688  4815 layer_factory.hpp:77] Creating layer relu2_1
I0422 19:44:57.133692  4815 net.cpp:84] Creating Layer relu2_1
I0422 19:44:57.133694  4815 net.cpp:406] relu2_1 <- conv2_1
I0422 19:44:57.133698  4815 net.cpp:367] relu2_1 -> conv2_1 (in-place)
I0422 19:44:57.133849  4815 net.cpp:122] Setting up relu2_1
I0422 19:44:57.133855  4815 net.cpp:129] Top shape: 16 128 112 112 (25690112)
I0422 19:44:57.133857  4815 net.cpp:137] Memory required for data: 1088618560
I0422 19:44:57.133859  4815 layer_factory.hpp:77] Creating layer conv2_2
I0422 19:44:57.133865  4815 net.cpp:84] Creating Layer conv2_2
I0422 19:44:57.133867  4815 net.cpp:406] conv2_2 <- conv2_1
I0422 19:44:57.133872  4815 net.cpp:380] conv2_2 -> conv2_2
I0422 19:44:57.135166  4815 net.cpp:122] Setting up conv2_2
I0422 19:44:57.135175  4815 net.cpp:129] Top shape: 16 128 112 112 (25690112)
I0422 19:44:57.135177  4815 net.cpp:137] Memory required for data: 1191379008
I0422 19:44:57.135181  4815 layer_factory.hpp:77] Creating layer relu2_2
I0422 19:44:57.135185  4815 net.cpp:84] Creating Layer relu2_2
I0422 19:44:57.135210  4815 net.cpp:406] relu2_2 <- conv2_2
I0422 19:44:57.135213  4815 net.cpp:367] relu2_2 -> conv2_2 (in-place)
I0422 19:44:57.135558  4815 net.cpp:122] Setting up relu2_2
I0422 19:44:57.135565  4815 net.cpp:129] Top shape: 16 128 112 112 (25690112)
I0422 19:44:57.135567  4815 net.cpp:137] Memory required for data: 1294139456
I0422 19:44:57.135571  4815 layer_factory.hpp:77] Creating layer pool2
I0422 19:44:57.135576  4815 net.cpp:84] Creating Layer pool2
I0422 19:44:57.135577  4815 net.cpp:406] pool2 <- conv2_2
I0422 19:44:57.135581  4815 net.cpp:380] pool2 -> pool2
I0422 19:44:57.135624  4815 net.cpp:122] Setting up pool2
I0422 19:44:57.135632  4815 net.cpp:129] Top shape: 16 128 56 56 (6422528)
I0422 19:44:57.135633  4815 net.cpp:137] Memory required for data: 1319829568
I0422 19:44:57.135635  4815 layer_factory.hpp:77] Creating layer conv3_1
I0422 19:44:57.135640  4815 net.cpp:84] Creating Layer conv3_1
I0422 19:44:57.135643  4815 net.cpp:406] conv3_1 <- pool2
I0422 19:44:57.135655  4815 net.cpp:380] conv3_1 -> conv3_1
I0422 19:44:57.137013  4815 net.cpp:122] Setting up conv3_1
I0422 19:44:57.137022  4815 net.cpp:129] Top shape: 16 256 56 56 (12845056)
I0422 19:44:57.137024  4815 net.cpp:137] Memory required for data: 1371209792
I0422 19:44:57.137032  4815 layer_factory.hpp:77] Creating layer relu3_1
I0422 19:44:57.137035  4815 net.cpp:84] Creating Layer relu3_1
I0422 19:44:57.137037  4815 net.cpp:406] relu3_1 <- conv3_1
I0422 19:44:57.137042  4815 net.cpp:367] relu3_1 -> conv3_1 (in-place)
I0422 19:44:57.137523  4815 net.cpp:122] Setting up relu3_1
I0422 19:44:57.137531  4815 net.cpp:129] Top shape: 16 256 56 56 (12845056)
I0422 19:44:57.137532  4815 net.cpp:137] Memory required for data: 1422590016
I0422 19:44:57.137534  4815 layer_factory.hpp:77] Creating layer conv3_2
I0422 19:44:57.137539  4815 net.cpp:84] Creating Layer conv3_2
I0422 19:44:57.137542  4815 net.cpp:406] conv3_2 <- conv3_1
I0422 19:44:57.137545  4815 net.cpp:380] conv3_2 -> conv3_2
I0422 19:44:57.139219  4815 net.cpp:122] Setting up conv3_2
I0422 19:44:57.139227  4815 net.cpp:129] Top shape: 16 256 56 56 (12845056)
I0422 19:44:57.139230  4815 net.cpp:137] Memory required for data: 1473970240
I0422 19:44:57.139233  4815 layer_factory.hpp:77] Creating layer relu3_2
I0422 19:44:57.139238  4815 net.cpp:84] Creating Layer relu3_2
I0422 19:44:57.139240  4815 net.cpp:406] relu3_2 <- conv3_2
I0422 19:44:57.139243  4815 net.cpp:367] relu3_2 -> conv3_2 (in-place)
I0422 19:44:57.139574  4815 net.cpp:122] Setting up relu3_2
I0422 19:44:57.139581  4815 net.cpp:129] Top shape: 16 256 56 56 (12845056)
I0422 19:44:57.139583  4815 net.cpp:137] Memory required for data: 1525350464
I0422 19:44:57.139585  4815 layer_factory.hpp:77] Creating layer conv3_3
I0422 19:44:57.139591  4815 net.cpp:84] Creating Layer conv3_3
I0422 19:44:57.139593  4815 net.cpp:406] conv3_3 <- conv3_2
I0422 19:44:57.139596  4815 net.cpp:380] conv3_3 -> conv3_3
I0422 19:44:57.141381  4815 net.cpp:122] Setting up conv3_3
I0422 19:44:57.141391  4815 net.cpp:129] Top shape: 16 256 56 56 (12845056)
I0422 19:44:57.141403  4815 net.cpp:137] Memory required for data: 1576730688
I0422 19:44:57.141408  4815 layer_factory.hpp:77] Creating layer relu3_3
I0422 19:44:57.141414  4815 net.cpp:84] Creating Layer relu3_3
I0422 19:44:57.141417  4815 net.cpp:406] relu3_3 <- conv3_3
I0422 19:44:57.141422  4815 net.cpp:367] relu3_3 -> conv3_3 (in-place)
I0422 19:44:57.141813  4815 net.cpp:122] Setting up relu3_3
I0422 19:44:57.141824  4815 net.cpp:129] Top shape: 16 256 56 56 (12845056)
I0422 19:44:57.141825  4815 net.cpp:137] Memory required for data: 1628110912
I0422 19:44:57.141827  4815 layer_factory.hpp:77] Creating layer pool3
I0422 19:44:57.141834  4815 net.cpp:84] Creating Layer pool3
I0422 19:44:57.141835  4815 net.cpp:406] pool3 <- conv3_3
I0422 19:44:57.141839  4815 net.cpp:380] pool3 -> pool3
I0422 19:44:57.141871  4815 net.cpp:122] Setting up pool3
I0422 19:44:57.141876  4815 net.cpp:129] Top shape: 16 256 28 28 (3211264)
I0422 19:44:57.141878  4815 net.cpp:137] Memory required for data: 1640955968
I0422 19:44:57.141888  4815 layer_factory.hpp:77] Creating layer conv4_1
I0422 19:44:57.141896  4815 net.cpp:84] Creating Layer conv4_1
I0422 19:44:57.141898  4815 net.cpp:406] conv4_1 <- pool3
I0422 19:44:57.141901  4815 net.cpp:380] conv4_1 -> conv4_1
I0422 19:44:57.145520  4815 net.cpp:122] Setting up conv4_1
I0422 19:44:57.145539  4815 net.cpp:129] Top shape: 16 512 28 28 (6422528)
I0422 19:44:57.145541  4815 net.cpp:137] Memory required for data: 1666646080
I0422 19:44:57.145547  4815 layer_factory.hpp:77] Creating layer relu4_1
I0422 19:44:57.145555  4815 net.cpp:84] Creating Layer relu4_1
I0422 19:44:57.145558  4815 net.cpp:406] relu4_1 <- conv4_1
I0422 19:44:57.145572  4815 net.cpp:367] relu4_1 -> conv4_1 (in-place)
I0422 19:44:57.145712  4815 net.cpp:122] Setting up relu4_1
I0422 19:44:57.145720  4815 net.cpp:129] Top shape: 16 512 28 28 (6422528)
I0422 19:44:57.145721  4815 net.cpp:137] Memory required for data: 1692336192
I0422 19:44:57.145723  4815 layer_factory.hpp:77] Creating layer conv4_2
I0422 19:44:57.145730  4815 net.cpp:84] Creating Layer conv4_2
I0422 19:44:57.145732  4815 net.cpp:406] conv4_2 <- conv4_1
I0422 19:44:57.145736  4815 net.cpp:380] conv4_2 -> conv4_2
I0422 19:44:57.150055  4815 net.cpp:122] Setting up conv4_2
I0422 19:44:57.150076  4815 net.cpp:129] Top shape: 16 512 28 28 (6422528)
I0422 19:44:57.150079  4815 net.cpp:137] Memory required for data: 1718026304
I0422 19:44:57.150090  4815 layer_factory.hpp:77] Creating layer relu4_2
I0422 19:44:57.150099  4815 net.cpp:84] Creating Layer relu4_2
I0422 19:44:57.150102  4815 net.cpp:406] relu4_2 <- conv4_2
I0422 19:44:57.150116  4815 net.cpp:367] relu4_2 -> conv4_2 (in-place)
I0422 19:44:57.150462  4815 net.cpp:122] Setting up relu4_2
I0422 19:44:57.150472  4815 net.cpp:129] Top shape: 16 512 28 28 (6422528)
I0422 19:44:57.150475  4815 net.cpp:137] Memory required for data: 1743716416
I0422 19:44:57.150476  4815 layer_factory.hpp:77] Creating layer conv4_3
I0422 19:44:57.150482  4815 net.cpp:84] Creating Layer conv4_3
I0422 19:44:57.150485  4815 net.cpp:406] conv4_3 <- conv4_2
I0422 19:44:57.150488  4815 net.cpp:380] conv4_3 -> conv4_3
I0422 19:44:57.154922  4815 net.cpp:122] Setting up conv4_3
I0422 19:44:57.154945  4815 net.cpp:129] Top shape: 16 512 28 28 (6422528)
I0422 19:44:57.154948  4815 net.cpp:137] Memory required for data: 1769406528
I0422 19:44:57.154954  4815 layer_factory.hpp:77] Creating layer relu4_3
I0422 19:44:57.154963  4815 net.cpp:84] Creating Layer relu4_3
I0422 19:44:57.154965  4815 net.cpp:406] relu4_3 <- conv4_3
I0422 19:44:57.154971  4815 net.cpp:367] relu4_3 -> conv4_3 (in-place)
I0422 19:44:57.155117  4815 net.cpp:122] Setting up relu4_3
I0422 19:44:57.155123  4815 net.cpp:129] Top shape: 16 512 28 28 (6422528)
I0422 19:44:57.155125  4815 net.cpp:137] Memory required for data: 1795096640
I0422 19:44:57.155128  4815 layer_factory.hpp:77] Creating layer pool4
I0422 19:44:57.155133  4815 net.cpp:84] Creating Layer pool4
I0422 19:44:57.155135  4815 net.cpp:406] pool4 <- conv4_3
I0422 19:44:57.155138  4815 net.cpp:380] pool4 -> pool4
I0422 19:44:57.155180  4815 net.cpp:122] Setting up pool4
I0422 19:44:57.155194  4815 net.cpp:129] Top shape: 16 512 14 14 (1605632)
I0422 19:44:57.155196  4815 net.cpp:137] Memory required for data: 1801519168
I0422 19:44:57.155199  4815 layer_factory.hpp:77] Creating layer conv5_1
I0422 19:44:57.155205  4815 net.cpp:84] Creating Layer conv5_1
I0422 19:44:57.155206  4815 net.cpp:406] conv5_1 <- pool4
I0422 19:44:57.155210  4815 net.cpp:380] conv5_1 -> conv5_1
I0422 19:44:57.160276  4815 net.cpp:122] Setting up conv5_1
I0422 19:44:57.160297  4815 net.cpp:129] Top shape: 16 512 14 14 (1605632)
I0422 19:44:57.160300  4815 net.cpp:137] Memory required for data: 1807941696
I0422 19:44:57.160306  4815 layer_factory.hpp:77] Creating layer relu5_1
I0422 19:44:57.160315  4815 net.cpp:84] Creating Layer relu5_1
I0422 19:44:57.160317  4815 net.cpp:406] relu5_1 <- conv5_1
I0422 19:44:57.160332  4815 net.cpp:367] relu5_1 -> conv5_1 (in-place)
I0422 19:44:57.160750  4815 net.cpp:122] Setting up relu5_1
I0422 19:44:57.160778  4815 net.cpp:129] Top shape: 16 512 14 14 (1605632)
I0422 19:44:57.160780  4815 net.cpp:137] Memory required for data: 1814364224
I0422 19:44:57.160794  4815 layer_factory.hpp:77] Creating layer conv5_2
I0422 19:44:57.160800  4815 net.cpp:84] Creating Layer conv5_2
I0422 19:44:57.160804  4815 net.cpp:406] conv5_2 <- conv5_1
I0422 19:44:57.160806  4815 net.cpp:380] conv5_2 -> conv5_2
I0422 19:44:57.165490  4815 net.cpp:122] Setting up conv5_2
I0422 19:44:57.165513  4815 net.cpp:129] Top shape: 16 512 14 14 (1605632)
I0422 19:44:57.165516  4815 net.cpp:137] Memory required for data: 1820786752
I0422 19:44:57.165522  4815 layer_factory.hpp:77] Creating layer relu5_2
I0422 19:44:57.165530  4815 net.cpp:84] Creating Layer relu5_2
I0422 19:44:57.165534  4815 net.cpp:406] relu5_2 <- conv5_2
I0422 19:44:57.165549  4815 net.cpp:367] relu5_2 -> conv5_2 (in-place)
I0422 19:44:57.165899  4815 net.cpp:122] Setting up relu5_2
I0422 19:44:57.165907  4815 net.cpp:129] Top shape: 16 512 14 14 (1605632)
I0422 19:44:57.165910  4815 net.cpp:137] Memory required for data: 1827209280
I0422 19:44:57.165911  4815 layer_factory.hpp:77] Creating layer conv5_3
I0422 19:44:57.165918  4815 net.cpp:84] Creating Layer conv5_3
I0422 19:44:57.165920  4815 net.cpp:406] conv5_3 <- conv5_2
I0422 19:44:57.165925  4815 net.cpp:380] conv5_3 -> conv5_3
I0422 19:44:57.170568  4815 net.cpp:122] Setting up conv5_3
I0422 19:44:57.170594  4815 net.cpp:129] Top shape: 16 512 14 14 (1605632)
I0422 19:44:57.170596  4815 net.cpp:137] Memory required for data: 1833631808
I0422 19:44:57.170604  4815 layer_factory.hpp:77] Creating layer relu5_3
I0422 19:44:57.170613  4815 net.cpp:84] Creating Layer relu5_3
I0422 19:44:57.170615  4815 net.cpp:406] relu5_3 <- conv5_3
I0422 19:44:57.170620  4815 net.cpp:367] relu5_3 -> conv5_3 (in-place)
I0422 19:44:57.170788  4815 net.cpp:122] Setting up relu5_3
I0422 19:44:57.170794  4815 net.cpp:129] Top shape: 16 512 14 14 (1605632)
I0422 19:44:57.170795  4815 net.cpp:137] Memory required for data: 1840054336
I0422 19:44:57.170797  4815 layer_factory.hpp:77] Creating layer pool5
I0422 19:44:57.170802  4815 net.cpp:84] Creating Layer pool5
I0422 19:44:57.170804  4815 net.cpp:406] pool5 <- conv5_3
I0422 19:44:57.170810  4815 net.cpp:380] pool5 -> pool5
I0422 19:44:57.170864  4815 net.cpp:122] Setting up pool5
I0422 19:44:57.170869  4815 net.cpp:129] Top shape: 16 512 7 7 (401408)
I0422 19:44:57.170871  4815 net.cpp:137] Memory required for data: 1841659968
I0422 19:44:57.170872  4815 layer_factory.hpp:77] Creating layer fc6
I0422 19:44:57.170904  4815 net.cpp:84] Creating Layer fc6
I0422 19:44:57.170907  4815 net.cpp:406] fc6 <- pool5
I0422 19:44:57.170910  4815 net.cpp:380] fc6 -> fc6
I0422 19:44:57.316401  4815 net.cpp:122] Setting up fc6
I0422 19:44:57.316426  4815 net.cpp:129] Top shape: 16 4096 (65536)
I0422 19:44:57.316427  4815 net.cpp:137] Memory required for data: 1841922112
I0422 19:44:57.316434  4815 layer_factory.hpp:77] Creating layer relu6
I0422 19:44:57.316443  4815 net.cpp:84] Creating Layer relu6
I0422 19:44:57.316447  4815 net.cpp:406] relu6 <- fc6
I0422 19:44:57.316452  4815 net.cpp:367] relu6 -> fc6 (in-place)
I0422 19:44:57.316937  4815 net.cpp:122] Setting up relu6
I0422 19:44:57.316946  4815 net.cpp:129] Top shape: 16 4096 (65536)
I0422 19:44:57.316947  4815 net.cpp:137] Memory required for data: 1842184256
I0422 19:44:57.316951  4815 layer_factory.hpp:77] Creating layer drop6
I0422 19:44:57.316958  4815 net.cpp:84] Creating Layer drop6
I0422 19:44:57.316962  4815 net.cpp:406] drop6 <- fc6
I0422 19:44:57.316964  4815 net.cpp:367] drop6 -> fc6 (in-place)
I0422 19:44:57.317000  4815 net.cpp:122] Setting up drop6
I0422 19:44:57.317004  4815 net.cpp:129] Top shape: 16 4096 (65536)
I0422 19:44:57.317006  4815 net.cpp:137] Memory required for data: 1842446400
I0422 19:44:57.317018  4815 layer_factory.hpp:77] Creating layer fc7
I0422 19:44:57.317023  4815 net.cpp:84] Creating Layer fc7
I0422 19:44:57.317025  4815 net.cpp:406] fc7 <- fc6
I0422 19:44:57.317040  4815 net.cpp:380] fc7 -> fc7
I0422 19:44:57.341256  4815 net.cpp:122] Setting up fc7
I0422 19:44:57.341280  4815 net.cpp:129] Top shape: 16 4096 (65536)
I0422 19:44:57.341284  4815 net.cpp:137] Memory required for data: 1842708544
I0422 19:44:57.341290  4815 layer_factory.hpp:77] Creating layer relu7
I0422 19:44:57.341298  4815 net.cpp:84] Creating Layer relu7
I0422 19:44:57.341302  4815 net.cpp:406] relu7 <- fc7
I0422 19:44:57.341306  4815 net.cpp:367] relu7 -> fc7 (in-place)
I0422 19:44:57.341513  4815 net.cpp:122] Setting up relu7
I0422 19:44:57.341519  4815 net.cpp:129] Top shape: 16 4096 (65536)
I0422 19:44:57.341521  4815 net.cpp:137] Memory required for data: 1842970688
I0422 19:44:57.341523  4815 layer_factory.hpp:77] Creating layer drop7
I0422 19:44:57.341528  4815 net.cpp:84] Creating Layer drop7
I0422 19:44:57.341531  4815 net.cpp:406] drop7 <- fc7
I0422 19:44:57.341533  4815 net.cpp:367] drop7 -> fc7 (in-place)
I0422 19:44:57.341564  4815 net.cpp:122] Setting up drop7
I0422 19:44:57.341570  4815 net.cpp:129] Top shape: 16 4096 (65536)
I0422 19:44:57.341572  4815 net.cpp:137] Memory required for data: 1843232832
I0422 19:44:57.341574  4815 layer_factory.hpp:77] Creating layer fc8-pv
I0422 19:44:57.341580  4815 net.cpp:84] Creating Layer fc8-pv
I0422 19:44:57.341583  4815 net.cpp:406] fc8-pv <- fc7
I0422 19:44:57.341586  4815 net.cpp:380] fc8-pv -> fc8-pv
I0422 19:44:57.342077  4815 net.cpp:122] Setting up fc8-pv
I0422 19:44:57.342085  4815 net.cpp:129] Top shape: 16 38 (608)
I0422 19:44:57.342087  4815 net.cpp:137] Memory required for data: 1843235264
I0422 19:44:57.342090  4815 layer_factory.hpp:77] Creating layer loss
I0422 19:44:57.342097  4815 net.cpp:84] Creating Layer loss
I0422 19:44:57.342099  4815 net.cpp:406] loss <- fc8-pv
I0422 19:44:57.342103  4815 net.cpp:406] loss <- label
I0422 19:44:57.342118  4815 net.cpp:380] loss -> loss/loss
I0422 19:44:57.342126  4815 layer_factory.hpp:77] Creating layer loss
…
I0422 19:44:57.343303  4815 net.cpp:294] The NetState phase (1) differed from the phase (0) specified by a rule in layer data
I0422 19:44:57.343472  4815 net.cpp:51] Initializing net from parameters: 
name: "VGG_ILSVRC_16_layers"
state {
  phase: TEST
}
layer {
  name: "data"
  type: "Data"
  top: "data"
  top: "label"
  include {
    phase: TEST
  }
  transform_param {
    mirror: true
    crop_size: 224
    mean_file: "/home/kb/PlantVillage_Caffe/lmdb/mean.binaryproto"
  }
  data_param {
    source: "/home/kb/PlantVillage_Caffe/lmdb/val_lmdb"
    batch_size: 16
    backend: LMDB
  }
}
layer {
  name: "conv1_1"
  type: "Convolution"
  bottom: "data"
  top: "conv1_1"
  param {
    lr_mult: 0
  }
  param {
    lr_mult: 0
  }
  convolution_param {
    num_output: 64
    pad: 1
    kernel_size: 3
  }
}
layer {
  name: "relu1_1"
  type: "ReLU"
  bottom: "conv1_1"
  top: "conv1_1"
}
layer {
  name: "conv1_2"
  type: "Convolution"
  bottom: "conv1_1"
  top: "conv1_2"
  param {
    lr_mult: 0
  }
  param {
    lr_mult: 0
  }
  convolution_param {
    num_output: 64
    pad: 1
    kernel_size: 3
  }
}
layer {
  name: "relu1_2"
  type: "ReLU"
  bottom: "conv1_2"
  top: "conv1_2"
}
layer {
  name: "pool1"
  type: "Pooling"
  bottom: "conv1_2"
  top: "pool1"
  pooling_param {
    pool: MAX
    kernel_size: 2
    stride: 2
  }
}
layer {
  name: "conv2_1"
  type: "Convolution"
  bottom: "pool1"
  top: "conv2_1"
  param {
    lr_mult: 0
  }
  param {
    lr_mult: 0
  }
  convolution_param {
    num_output: 128
    pad: 1
    kernel_size: 3
  }
}
layer {
  name: "relu2_1"
  type: "ReLU"
  bottom: "conv2_1"
  top: "conv2_1"
}
layer {
  name: "conv2_2"
  type: "Convolution"
  bottom: "conv2_1"
  top: "conv2_2"
  param {
    lr_mult: 0
  }
  param {
    lr_mult: 0
  }
  convolution_param {
    num_output: 128
    pad: 1
    kernel_size: 3
  }
}
layer {
  name: "relu2_2"
  type: "ReLU"
  bottom: "conv2_2"
  top: "conv2_2"
}
layer {
  name: "pool2"
  type: "Pooling"
  bottom: "conv2_2"
  top: "pool2"
  pooling_param {
    pool: MAX
    kernel_size: 2
    stride: 2
  }
}
layer {
  name: "conv3_1"
  type: "Convolution"
  bottom: "pool2"
  top: "conv3_1"
  param {
    lr_mult: 0
  }
  param {
    lr_mult: 0
  }
  convolution_param {
    num_output: 256
    pad: 1
    kernel_size: 3
  }
}
layer {
  name: "relu3_1"
  type: "ReLU"
  bottom: "conv3_1"
  top: "conv3_1"
}
layer {
  name: "conv3_2"
  type: "Convolution"
  bottom: "conv3_1"
  top: "conv3_2"
  param {
    lr_mult: 0
  }
  param {
    lr_mult: 0
  }
  convolution_param {
    num_output: 256
    pad: 1
    kernel_size: 3
  }
}
layer {
  name: "relu3_2"
  type: "ReLU"
  bottom: "conv3_2"
  top: "conv3_2"
}
layer {
  name: "conv3_3"
  type: "Convolution"
  bottom: "conv3_2"
  top: "conv3_3"
  param {
    lr_mult: 0
  }
  param {
    lr_mult: 0
  }
  convolution_param {
    num_output: 256
    pad: 1
    kernel_size: 3
  }
}
layer {
  name: "relu3_3"
  type: "ReLU"
  bottom: "conv3_3"
  top: "conv3_3"
}
layer {
  name: "pool3"
  type: "Pooling"
  bottom: "conv3_3"
  top: "pool3"
  pooling_param {
    pool: MAX
    kernel_size: 2
    stride: 2
  }
}
layer {
  name: "conv4_1"
  type: "Convolution"
  bottom: "pool3"
  top: "conv4_1"
  param {
    lr_mult: 0
  }
  param {
    lr_mult: 0
  }
  convolution_param {
    num_output: 512
    pad: 1
    kernel_size: 3
  }
}
layer {
  name: "relu4_1"
  type: "ReLU"
  bottom: "conv4_1"
  top: "conv4_1"
}
layer {
  name: "conv4_2"
  type: "Convolution"
  bottom: "conv4_1"
  top: "conv4_2"
  param {
    lr_mult: 0
  }
  param {
    lr_mult: 0
  }
  convolution_param {
    num_output: 512
    pad: 1
    kernel_size: 3
  }
}
layer {
  name: "relu4_2"
  type: "ReLU"
  bottom: "conv4_2"
  top: "conv4_2"
}
layer {
  name: "conv4_3"
  type: "Convolution"
  bottom: "conv4_2"
  top: "conv4_3"
  param {
    lr_mult: 0
  }
  param {
    lr_mult: 0
  }
  convolution_param {
    num_output: 512
    pad: 1
    kernel_size: 3
  }
}
layer {
  name: "relu4_3"
  type: "ReLU"
  bottom: "conv4_3"
  top: "conv4_3"
}
layer {
  name: "pool4"
  type: "Pooling"
  bottom: "conv4_3"
  top: "pool4"
  pooling_param {
    pool: MAX
    kernel_size: 2
    stride: 2
  }
}
layer {
  name: "conv5_1"
  type: "Convolution"
  bottom: "pool4"
  top: "conv5_1"
  param {
    lr_mult: 0
  }
  param {
    lr_mult: 0
  }
  convolution_param {
    num_output: 512
    pad: 1
    kernel_size: 3
  }
}
layer {
  name: "relu5_1"
  type: "ReLU"
  bottom: "conv5_1"
  top: "conv5_1"
}
layer {
  name: "conv5_2"
  type: "Convolution"
  bottom: "conv5_1"
  top: "conv5_2"
  param {
    lr_mult: 0
  }
  param {
    lr_mult: 0
  }
  convolution_param {
    num_output: 512
    pad: 1
    kernel_size: 3
  }
}
layer {
  name: "relu5_2"
  type: "ReLU"
  bottom: "conv5_2"
  top: "conv5_2"
}
layer {
  name: "conv5_3"
  type: "Convolution"
  bottom: "conv5_2"
  top: "conv5_3"
  param {
    lr_mult: 0
  }
  param {
    lr_mult: 0
  }
  convolution_param {
    num_output: 512
    pad: 1
    kernel_size: 3
  }
}
layer {
  name: "relu5_3"
  type: "ReLU"
  bottom: "conv5_3"
  top: "conv5_3"
}
layer {
  name: "pool5"
  type: "Pooling"
  bottom: "conv5_3"
  top: "pool5"
  pooling_param {
    pool: MAX
    kernel_size: 2
    stride: 2
  }
}
layer {
  name: "fc6"
  type: "InnerProduct"
  bottom: "pool5"
  top: "fc6"
  param {
    lr_mult: 0
  }
  param {
    lr_mult: 0
  }
  inner_product_param {
    num_output: 4096
  }
}
layer {
  name: "relu6"
  type: "ReLU"
  bottom: "fc6"
  top: "fc6"
}
layer {
  name: "drop6"
  type: "Dropout"
  bottom: "fc6"
  top: "fc6"
  dropout_param {
    dropout_ratio: 0.5
  }
}
layer {
  name: "fc7"
  type: "InnerProduct"
  bottom: "fc6"
  top: "fc7"
  param {
    lr_mult: 0
  }
  param {
    lr_mult: 0
  }
  inner_product_param {
    num_output: 4096
  }
}
layer {
  name: "relu7"
  type: "ReLU"
  bottom: "fc7"
  top: "fc7"
}
layer {
  name: "drop7"
  type: "Dropout"
  bottom: "fc7"
  top: "fc7"
  dropout_param {
    dropout_ratio: 0.5
  }
}
layer {
  name: "fc8-pv"
  type: "InnerProduct"
  bottom: "fc7"
  top: "fc8-pv"
  param {
    lr_mult: 0
  }
  param {
    lr_mult: 0
  }
  inner_product_param {
    num_output: 38
  }
}
layer {
  name: "loss"
  type: "SoftmaxWithLoss"
  bottom: "fc8-pv"
  bottom: "label"
  top: "loss/loss"
}
layer {
  name: "accuracy/top1"
  type: "Accuracy"
  bottom: "fc8-pv"
  bottom: "label"
  top: "accuracy@1"
  include {
    phase: TEST
  }
  accuracy_param {
    top_k: 1
  }
}
layer {
  name: "accuracy/top5"
  type: "Accuracy"
  bottom: "fc8-pv"
  bottom: "label"
  top: "accuracy@5"
  include {
    phase: TEST
  }
  accuracy_param {
    top_k: 5
  }
}
I0422 19:44:57.343596  4815 layer_factory.hpp:77] Creating layer data
I0422 19:44:57.343641  4815 db_lmdb.cpp:35] Opened lmdb /home/kb/PlantVillage_Caffe/lmdb/val_lmdb
I0422 19:44:57.343650  4815 net.cpp:84] Creating Layer data
I0422 19:44:57.343654  4815 net.cpp:380] data -> data
I0422 19:44:57.343660  4815 net.cpp:380] data -> label
I0422 19:44:57.343665  4815 data_transformer.cpp:25] Loading mean file from: /home/kb/PlantVillage_Caffe/lmdb/mean.binaryproto
I0422 19:44:57.345110  4815 data_layer.cpp:45] output data size: 16,3,224,224
I0422 19:44:57.360388  4815 net.cpp:122] Setting up data
I0422 19:44:57.360419  4815 net.cpp:129] Top shape: 16 3 224 224 (2408448)
I0422 19:44:57.360424  4815 net.cpp:129] Top shape: 16 (16)
I0422 19:44:57.360426  4815 net.cpp:137] Memory required for data: 9633856
I0422 19:44:57.360431  4815 layer_factory.hpp:77] Creating layer label_data_1_split
I0422 19:44:57.360442  4815 net.cpp:84] Creating Layer label_data_1_split
I0422 19:44:57.360446  4815 net.cpp:406] label_data_1_split <- label
I0422 19:44:57.360452  4815 net.cpp:380] label_data_1_split -> label_data_1_split_0
I0422 19:44:57.360469  4815 net.cpp:380] label_data_1_split -> label_data_1_split_1
I0422 19:44:57.360473  4815 net.cpp:380] label_data_1_split -> label_data_1_split_2
I0422 19:44:57.360546  4815 net.cpp:122] Setting up label_data_1_split
I0422 19:44:57.360550  4815 net.cpp:129] Top shape: 16 (16)
I0422 19:44:57.360563  4815 net.cpp:129] Top shape: 16 (16)
I0422 19:44:57.360565  4815 net.cpp:129] Top shape: 16 (16)
I0422 19:44:57.360568  4815 net.cpp:137] Memory required for data: 9634048
I0422 19:44:57.360569  4815 layer_factory.hpp:77] Creating layer conv1_1
I0422 19:44:57.360577  4815 net.cpp:84] Creating Layer conv1_1
I0422 19:44:57.360580  4815 net.cpp:406] conv1_1 <- data
I0422 19:44:57.360594  4815 net.cpp:380] conv1_1 -> conv1_1
I0422 19:44:57.362622  4815 net.cpp:122] Setting up conv1_1
I0422 19:44:57.362630  4815 net.cpp:129] Top shape: 16 64 224 224 (51380224)
I0422 19:44:57.362643  4815 net.cpp:137] Memory required for data: 215154944
I0422 19:44:57.362650  4815 layer_factory.hpp:77] Creating layer relu1_1
I0422 19:44:57.362655  4815 net.cpp:84] Creating Layer relu1_1
I0422 19:44:57.362658  4815 net.cpp:406] relu1_1 <- conv1_1
I0422 19:44:57.362661  4815 net.cpp:367] relu1_1 -> conv1_1 (in-place)
I0422 19:44:57.363035  4815 net.cpp:122] Setting up relu1_1
I0422 19:44:57.363044  4815 net.cpp:129] Top shape: 16 64 224 224 (51380224)
I0422 19:44:57.363055  4815 net.cpp:137] Memory required for data: 420675840
I0422 19:44:57.363057  4815 layer_factory.hpp:77] Creating layer conv1_2
I0422 19:44:57.363064  4815 net.cpp:84] Creating Layer conv1_2
I0422 19:44:57.363066  4815 net.cpp:406] conv1_2 <- conv1_1
I0422 19:44:57.363070  4815 net.cpp:380] conv1_2 -> conv1_2
I0422 19:44:57.364423  4815 net.cpp:122] Setting up conv1_2
I0422 19:44:57.364433  4815 net.cpp:129] Top shape: 16 64 224 224 (51380224)
I0422 19:44:57.364445  4815 net.cpp:137] Memory required for data: 626196736
I0422 19:44:57.364451  4815 layer_factory.hpp:77] Creating layer relu1_2
I0422 19:44:57.364455  4815 net.cpp:84] Creating Layer relu1_2
I0422 19:44:57.364457  4815 net.cpp:406] relu1_2 <- conv1_2
I0422 19:44:57.364461  4815 net.cpp:367] relu1_2 -> conv1_2 (in-place)
I0422 19:44:57.364620  4815 net.cpp:122] Setting up relu1_2
I0422 19:44:57.364626  4815 net.cpp:129] Top shape: 16 64 224 224 (51380224)
I0422 19:44:57.364639  4815 net.cpp:137] Memory required for data: 831717632
I0422 19:44:57.364640  4815 layer_factory.hpp:77] Creating layer pool1
I0422 19:44:57.364645  4815 net.cpp:84] Creating Layer pool1
I0422 19:44:57.364647  4815 net.cpp:406] pool1 <- conv1_2
I0422 19:44:57.364650  4815 net.cpp:380] pool1 -> pool1
I0422 19:44:57.364692  4815 net.cpp:122] Setting up pool1
I0422 19:44:57.364696  4815 net.cpp:129] Top shape: 16 64 112 112 (12845056)
I0422 19:44:57.364718  4815 net.cpp:137] Memory required for data: 883097856
I0422 19:44:57.364720  4815 layer_factory.hpp:77] Creating layer conv2_1
I0422 19:44:57.364725  4815 net.cpp:84] Creating Layer conv2_1
I0422 19:44:57.364728  4815 net.cpp:406] conv2_1 <- pool1
I0422 19:44:57.364742  4815 net.cpp:380] conv2_1 -> conv2_1
I0422 19:44:57.365803  4815 net.cpp:122] Setting up conv2_1
I0422 19:44:57.365813  4815 net.cpp:129] Top shape: 16 128 112 112 (25690112)
I0422 19:44:57.365825  4815 net.cpp:137] Memory required for data: 985858304
I0422 19:44:57.365831  4815 layer_factory.hpp:77] Creating layer relu2_1
I0422 19:44:57.365835  4815 net.cpp:84] Creating Layer relu2_1
I0422 19:44:57.365839  4815 net.cpp:406] relu2_1 <- conv2_1
I0422 19:44:57.365842  4815 net.cpp:367] relu2_1 -> conv2_1 (in-place)
I0422 19:44:57.366210  4815 net.cpp:122] Setting up relu2_1
I0422 19:44:57.366217  4815 net.cpp:129] Top shape: 16 128 112 112 (25690112)
I0422 19:44:57.366230  4815 net.cpp:137] Memory required for data: 1088618752
I0422 19:44:57.366232  4815 layer_factory.hpp:77] Creating layer conv2_2
I0422 19:44:57.366237  4815 net.cpp:84] Creating Layer conv2_2
I0422 19:44:57.366240  4815 net.cpp:406] conv2_2 <- conv2_1
I0422 19:44:57.366243  4815 net.cpp:380] conv2_2 -> conv2_2
I0422 19:44:57.367599  4815 net.cpp:122] Setting up conv2_2
I0422 19:44:57.367627  4815 net.cpp:129] Top shape: 16 128 112 112 (25690112)
I0422 19:44:57.367640  4815 net.cpp:137] Memory required for data: 1191379200
I0422 19:44:57.367645  4815 layer_factory.hpp:77] Creating layer relu2_2
I0422 19:44:57.367652  4815 net.cpp:84] Creating Layer relu2_2
I0422 19:44:57.367656  4815 net.cpp:406] relu2_2 <- conv2_2
I0422 19:44:57.367671  4815 net.cpp:367] relu2_2 -> conv2_2 (in-place)
I0422 19:44:57.367812  4815 net.cpp:122] Setting up relu2_2
I0422 19:44:57.367820  4815 net.cpp:129] Top shape: 16 128 112 112 (25690112)
I0422 19:44:57.367823  4815 net.cpp:137] Memory required for data: 1294139648
I0422 19:44:57.367827  4815 layer_factory.hpp:77] Creating layer pool2
I0422 19:44:57.367846  4815 net.cpp:84] Creating Layer pool2
I0422 19:44:57.367848  4815 net.cpp:406] pool2 <- conv2_2
I0422 19:44:57.367852  4815 net.cpp:380] pool2 -> pool2
I0422 19:44:57.367897  4815 net.cpp:122] Setting up pool2
I0422 19:44:57.367902  4815 net.cpp:129] Top shape: 16 128 56 56 (6422528)
I0422 19:44:57.367913  4815 net.cpp:137] Memory required for data: 1319829760
I0422 19:44:57.367914  4815 layer_factory.hpp:77] Creating layer conv3_1
I0422 19:44:57.367919  4815 net.cpp:84] Creating Layer conv3_1
I0422 19:44:57.367921  4815 net.cpp:406] conv3_1 <- pool2
I0422 19:44:57.367924  4815 net.cpp:380] conv3_1 -> conv3_1
I0422 19:44:57.369330  4815 net.cpp:122] Setting up conv3_1
I0422 19:44:57.369339  4815 net.cpp:129] Top shape: 16 256 56 56 (12845056)
I0422 19:44:57.369352  4815 net.cpp:137] Memory required for data: 1371209984
I0422 19:44:57.369359  4815 layer_factory.hpp:77] Creating layer relu3_1
I0422 19:44:57.369364  4815 net.cpp:84] Creating Layer relu3_1
I0422 19:44:57.369365  4815 net.cpp:406] relu3_1 <- conv3_1
I0422 19:44:57.369369  4815 net.cpp:367] relu3_1 -> conv3_1 (in-place)
I0422 19:44:57.369738  4815 net.cpp:122] Setting up relu3_1
I0422 19:44:57.369745  4815 net.cpp:129] Top shape: 16 256 56 56 (12845056)
I0422 19:44:57.369757  4815 net.cpp:137] Memory required for data: 1422590208
I0422 19:44:57.369760  4815 layer_factory.hpp:77] Creating layer conv3_2
I0422 19:44:57.369765  4815 net.cpp:84] Creating Layer conv3_2
I0422 19:44:57.369767  4815 net.cpp:406] conv3_2 <- conv3_1
I0422 19:44:57.369771  4815 net.cpp:380] conv3_2 -> conv3_2
I0422 19:44:57.372727  4815 net.cpp:122] Setting up conv3_2
I0422 19:44:57.372748  4815 net.cpp:129] Top shape: 16 256 56 56 (12845056)
I0422 19:44:57.372750  4815 net.cpp:137] Memory required for data: 1473970432
I0422 19:44:57.372756  4815 layer_factory.hpp:77] Creating layer relu3_2
I0422 19:44:57.372761  4815 net.cpp:84] Creating Layer relu3_2
I0422 19:44:57.372762  4815 net.cpp:406] relu3_2 <- conv3_2
I0422 19:44:57.372766  4815 net.cpp:367] relu3_2 -> conv3_2 (in-place)
I0422 19:44:57.373136  4815 net.cpp:122] Setting up relu3_2
I0422 19:44:57.373143  4815 net.cpp:129] Top shape: 16 256 56 56 (12845056)
I0422 19:44:57.373155  4815 net.cpp:137] Memory required for data: 1525350656
I0422 19:44:57.373157  4815 layer_factory.hpp:77] Creating layer conv3_3
I0422 19:44:57.373165  4815 net.cpp:84] Creating Layer conv3_3
I0422 19:44:57.373168  4815 net.cpp:406] conv3_3 <- conv3_2
I0422 19:44:57.373172  4815 net.cpp:380] conv3_3 -> conv3_3
I0422 19:44:57.375205  4815 net.cpp:122] Setting up conv3_3
I0422 19:44:57.375232  4815 net.cpp:129] Top shape: 16 256 56 56 (12845056)
I0422 19:44:57.375234  4815 net.cpp:137] Memory required for data: 1576730880
I0422 19:44:57.375241  4815 layer_factory.hpp:77] Creating layer relu3_3
I0422 19:44:57.375247  4815 net.cpp:84] Creating Layer relu3_3
I0422 19:44:57.375250  4815 net.cpp:406] relu3_3 <- conv3_3
I0422 19:44:57.375254  4815 net.cpp:367] relu3_3 -> conv3_3 (in-place)
I0422 19:44:57.375411  4815 net.cpp:122] Setting up relu3_3
I0422 19:44:57.375417  4815 net.cpp:129] Top shape: 16 256 56 56 (12845056)
I0422 19:44:57.375430  4815 net.cpp:137] Memory required for data: 1628111104
I0422 19:44:57.375432  4815 layer_factory.hpp:77] Creating layer pool3
I0422 19:44:57.375437  4815 net.cpp:84] Creating Layer pool3
I0422 19:44:57.375439  4815 net.cpp:406] pool3 <- conv3_3
I0422 19:44:57.375443  4815 net.cpp:380] pool3 -> pool3
I0422 19:44:57.375499  4815 net.cpp:122] Setting up pool3
I0422 19:44:57.375512  4815 net.cpp:129] Top shape: 16 256 28 28 (3211264)
I0422 19:44:57.375514  4815 net.cpp:137] Memory required for data: 1640956160
I0422 19:44:57.375515  4815 layer_factory.hpp:77] Creating layer conv4_1
I0422 19:44:57.375531  4815 net.cpp:84] Creating Layer conv4_1
I0422 19:44:57.375533  4815 net.cpp:406] conv4_1 <- pool3
I0422 19:44:57.375537  4815 net.cpp:380] conv4_1 -> conv4_1
I0422 19:44:57.378991  4815 net.cpp:122] Setting up conv4_1
I0422 19:44:57.379021  4815 net.cpp:129] Top shape: 16 512 28 28 (6422528)
I0422 19:44:57.379025  4815 net.cpp:137] Memory required for data: 1666646272
I0422 19:44:57.379031  4815 layer_factory.hpp:77] Creating layer relu4_1
I0422 19:44:57.379040  4815 net.cpp:84] Creating Layer relu4_1
I0422 19:44:57.379042  4815 net.cpp:406] relu4_1 <- conv4_1
I0422 19:44:57.379047  4815 net.cpp:367] relu4_1 -> conv4_1 (in-place)
I0422 19:44:57.379432  4815 net.cpp:122] Setting up relu4_1
I0422 19:44:57.379441  4815 net.cpp:129] Top shape: 16 512 28 28 (6422528)
I0422 19:44:57.379453  4815 net.cpp:137] Memory required for data: 1692336384
I0422 19:44:57.379456  4815 layer_factory.hpp:77] Creating layer conv4_2
I0422 19:44:57.379462  4815 net.cpp:84] Creating Layer conv4_2
I0422 19:44:57.379464  4815 net.cpp:406] conv4_2 <- conv4_1
I0422 19:44:57.379469  4815 net.cpp:380] conv4_2 -> conv4_2
I0422 19:44:57.384985  4815 net.cpp:122] Setting up conv4_2
I0422 19:44:57.385018  4815 net.cpp:129] Top shape: 16 512 28 28 (6422528)
I0422 19:44:57.385022  4815 net.cpp:137] Memory required for data: 1718026496
I0422 19:44:57.385033  4815 layer_factory.hpp:77] Creating layer relu4_2
I0422 19:44:57.385041  4815 net.cpp:84] Creating Layer relu4_2
I0422 19:44:57.385046  4815 net.cpp:406] relu4_2 <- conv4_2
I0422 19:44:57.385052  4815 net.cpp:367] relu4_2 -> conv4_2 (in-place)
I0422 19:44:57.385220  4815 net.cpp:122] Setting up relu4_2
I0422 19:44:57.385226  4815 net.cpp:129] Top shape: 16 512 28 28 (6422528)
I0422 19:44:57.385237  4815 net.cpp:137] Memory required for data: 1743716608
I0422 19:44:57.385241  4815 layer_factory.hpp:77] Creating layer conv4_3
I0422 19:44:57.385247  4815 net.cpp:84] Creating Layer conv4_3
I0422 19:44:57.385249  4815 net.cpp:406] conv4_3 <- conv4_2
I0422 19:44:57.385253  4815 net.cpp:380] conv4_3 -> conv4_3
I0422 19:44:57.390126  4815 net.cpp:122] Setting up conv4_3
I0422 19:44:57.390159  4815 net.cpp:129] Top shape: 16 512 28 28 (6422528)
I0422 19:44:57.390162  4815 net.cpp:137] Memory required for data: 1769406720
I0422 19:44:57.390168  4815 layer_factory.hpp:77] Creating layer relu4_3
I0422 19:44:57.390197  4815 net.cpp:84] Creating Layer relu4_3
I0422 19:44:57.390202  4815 net.cpp:406] relu4_3 <- conv4_3
I0422 19:44:57.390216  4815 net.cpp:367] relu4_3 -> conv4_3 (in-place)
I0422 19:44:57.390583  4815 net.cpp:122] Setting up relu4_3
I0422 19:44:57.390592  4815 net.cpp:129] Top shape: 16 512 28 28 (6422528)
I0422 19:44:57.390604  4815 net.cpp:137] Memory required for data: 1795096832
I0422 19:44:57.390607  4815 layer_factory.hpp:77] Creating layer pool4
I0422 19:44:57.390611  4815 net.cpp:84] Creating Layer pool4
I0422 19:44:57.390614  4815 net.cpp:406] pool4 <- conv4_3
I0422 19:44:57.390619  4815 net.cpp:380] pool4 -> pool4
I0422 19:44:57.390686  4815 net.cpp:122] Setting up pool4
I0422 19:44:57.390691  4815 net.cpp:129] Top shape: 16 512 14 14 (1605632)
I0422 19:44:57.390703  4815 net.cpp:137] Memory required for data: 1801519360
I0422 19:44:57.390705  4815 layer_factory.hpp:77] Creating layer conv5_1
I0422 19:44:57.390712  4815 net.cpp:84] Creating Layer conv5_1
I0422 19:44:57.390713  4815 net.cpp:406] conv5_1 <- pool4
I0422 19:44:57.390717  4815 net.cpp:380] conv5_1 -> conv5_1
I0422 19:44:57.396205  4815 net.cpp:122] Setting up conv5_1
I0422 19:44:57.396239  4815 net.cpp:129] Top shape: 16 512 14 14 (1605632)
I0422 19:44:57.396241  4815 net.cpp:137] Memory required for data: 1807941888
I0422 19:44:57.396247  4815 layer_factory.hpp:77] Creating layer relu5_1
I0422 19:44:57.396255  4815 net.cpp:84] Creating Layer relu5_1
I0422 19:44:57.396260  4815 net.cpp:406] relu5_1 <- conv5_1
I0422 19:44:57.396265  4815 net.cpp:367] relu5_1 -> conv5_1 (in-place)
I0422 19:44:57.396653  4815 net.cpp:122] Setting up relu5_1
I0422 19:44:57.396661  4815 net.cpp:129] Top shape: 16 512 14 14 (1605632)
I0422 19:44:57.396673  4815 net.cpp:137] Memory required for data: 1814364416
I0422 19:44:57.396675  4815 layer_factory.hpp:77] Creating layer conv5_2
I0422 19:44:57.396683  4815 net.cpp:84] Creating Layer conv5_2
I0422 19:44:57.396687  4815 net.cpp:406] conv5_2 <- conv5_1
I0422 19:44:57.396690  4815 net.cpp:380] conv5_2 -> conv5_2
I0422 19:44:57.401551  4815 net.cpp:122] Setting up conv5_2
I0422 19:44:57.401582  4815 net.cpp:129] Top shape: 16 512 14 14 (1605632)
I0422 19:44:57.401587  4815 net.cpp:137] Memory required for data: 1820786944
I0422 19:44:57.401592  4815 layer_factory.hpp:77] Creating layer relu5_2
I0422 19:44:57.401600  4815 net.cpp:84] Creating Layer relu5_2
I0422 19:44:57.401603  4815 net.cpp:406] relu5_2 <- conv5_2
I0422 19:44:57.401609  4815 net.cpp:367] relu5_2 -> conv5_2 (in-place)
I0422 19:44:57.401757  4815 net.cpp:122] Setting up relu5_2
I0422 19:44:57.401763  4815 net.cpp:129] Top shape: 16 512 14 14 (1605632)
I0422 19:44:57.401775  4815 net.cpp:137] Memory required for data: 1827209472
I0422 19:44:57.401777  4815 layer_factory.hpp:77] Creating layer conv5_3
I0422 19:44:57.401784  4815 net.cpp:84] Creating Layer conv5_3
I0422 19:44:57.401787  4815 net.cpp:406] conv5_3 <- conv5_2
I0422 19:44:57.401790  4815 net.cpp:380] conv5_3 -> conv5_3
I0422 19:44:57.407088  4815 net.cpp:122] Setting up conv5_3
I0422 19:44:57.407110  4815 net.cpp:129] Top shape: 16 512 14 14 (1605632)
I0422 19:44:57.407114  4815 net.cpp:137] Memory required for data: 1833632000
I0422 19:44:57.407119  4815 layer_factory.hpp:77] Creating layer relu5_3
I0422 19:44:57.407127  4815 net.cpp:84] Creating Layer relu5_3
I0422 19:44:57.407130  4815 net.cpp:406] relu5_3 <- conv5_3
I0422 19:44:57.407140  4815 net.cpp:367] relu5_3 -> conv5_3 (in-place)
I0422 19:44:57.407639  4815 net.cpp:122] Setting up relu5_3
I0422 19:44:57.407649  4815 net.cpp:129] Top shape: 16 512 14 14 (1605632)
I0422 19:44:57.407660  4815 net.cpp:137] Memory required for data: 1840054528
I0422 19:44:57.407663  4815 layer_factory.hpp:77] Creating layer pool5
I0422 19:44:57.407672  4815 net.cpp:84] Creating Layer pool5
I0422 19:44:57.407685  4815 net.cpp:406] pool5 <- conv5_3
I0422 19:44:57.407688  4815 net.cpp:380] pool5 -> pool5
I0422 19:44:57.407742  4815 net.cpp:122] Setting up pool5
I0422 19:44:57.407747  4815 net.cpp:129] Top shape: 16 512 7 7 (401408)
I0422 19:44:57.407758  4815 net.cpp:137] Memory required for data: 1841660160
I0422 19:44:57.407770  4815 layer_factory.hpp:77] Creating layer fc6
I0422 19:44:57.407776  4815 net.cpp:84] Creating Layer fc6
I0422 19:44:57.407778  4815 net.cpp:406] fc6 <- pool5
I0422 19:44:57.407783  4815 net.cpp:380] fc6 -> fc6
I0422 19:44:57.552428  4815 net.cpp:122] Setting up fc6
I0422 19:44:57.552451  4815 net.cpp:129] Top shape: 16 4096 (65536)
I0422 19:44:57.552454  4815 net.cpp:137] Memory required for data: 1841922304
I0422 19:44:57.552461  4815 layer_factory.hpp:77] Creating layer relu6
I0422 19:44:57.552469  4815 net.cpp:84] Creating Layer relu6
I0422 19:44:57.552472  4815 net.cpp:406] relu6 <- fc6
I0422 19:44:57.552477  4815 net.cpp:367] relu6 -> fc6 (in-place)
I0422 19:44:57.552690  4815 net.cpp:122] Setting up relu6
I0422 19:44:57.552698  4815 net.cpp:129] Top shape: 16 4096 (65536)
I0422 19:44:57.552700  4815 net.cpp:137] Memory required for data: 1842184448
I0422 19:44:57.552702  4815 layer_factory.hpp:77] Creating layer drop6
I0422 19:44:57.552707  4815 net.cpp:84] Creating Layer drop6
I0422 19:44:57.552709  4815 net.cpp:406] drop6 <- fc6
I0422 19:44:57.552711  4815 net.cpp:367] drop6 -> fc6 (in-place)
I0422 19:44:57.552747  4815 net.cpp:122] Setting up drop6
I0422 19:44:57.552752  4815 net.cpp:129] Top shape: 16 4096 (65536)
I0422 19:44:57.552753  4815 net.cpp:137] Memory required for data: 1842446592
I0422 19:44:57.552755  4815 layer_factory.hpp:77] Creating layer fc7
I0422 19:44:57.552760  4815 net.cpp:84] Creating Layer fc7
I0422 19:44:57.552762  4815 net.cpp:406] fc7 <- fc6
I0422 19:44:57.552765  4815 net.cpp:380] fc7 -> fc7
I0422 19:44:57.576923  4815 net.cpp:122] Setting up fc7
I0422 19:44:57.576948  4815 net.cpp:129] Top shape: 16 4096 (65536)
I0422 19:44:57.576951  4815 net.cpp:137] Memory required for data: 1842708736
I0422 19:44:57.576957  4815 layer_factory.hpp:77] Creating layer relu7
I0422 19:44:57.576967  4815 net.cpp:84] Creating Layer relu7
I0422 19:44:57.576970  4815 net.cpp:406] relu7 <- fc7
I0422 19:44:57.576975  4815 net.cpp:367] relu7 -> fc7 (in-place)
I0422 19:44:57.577473  4815 net.cpp:122] Setting up relu7
I0422 19:44:57.577481  4815 net.cpp:129] Top shape: 16 4096 (65536)
I0422 19:44:57.577483  4815 net.cpp:137] Memory required for data: 1842970880
I0422 19:44:57.577486  4815 layer_factory.hpp:77] Creating layer drop7
I0422 19:44:57.577491  4815 net.cpp:84] Creating Layer drop7
I0422 19:44:57.577493  4815 net.cpp:406] drop7 <- fc7
I0422 19:44:57.577497  4815 net.cpp:367] drop7 -> fc7 (in-place)
I0422 19:44:57.577533  4815 net.cpp:122] Setting up drop7
I0422 19:44:57.577538  4815 net.cpp:129] Top shape: 16 4096 (65536)
I0422 19:44:57.577538  4815 net.cpp:137] Memory required for data: 1843233024
I0422 19:44:57.577540  4815 layer_factory.hpp:77] Creating layer fc8-pv
I0422 19:44:57.577546  4815 net.cpp:84] Creating Layer fc8-pv
I0422 19:44:57.577548  4815 net.cpp:406] fc8-pv <- fc7
I0422 19:44:57.577553  4815 net.cpp:380] fc8-pv -> fc8-pv
I0422 19:44:57.578001  4815 net.cpp:122] Setting up fc8-pv
I0422 19:44:57.578009  4815 net.cpp:129] Top shape: 16 38 (608)
I0422 19:44:57.578011  4815 net.cpp:137] Memory required for data: 1843235456
I0422 19:44:57.578016  4815 layer_factory.hpp:77] Creating layer fc8-pv_fc8-pv_0_split
I0422 19:44:57.578021  4815 net.cpp:84] Creating Layer fc8-pv_fc8-pv_0_split
I0422 19:44:57.578022  4815 net.cpp:406] fc8-pv_fc8-pv_0_split <- fc8-pv
I0422 19:44:57.578025  4815 net.cpp:380] fc8-pv_fc8-pv_0_split -> fc8-pv_fc8-pv_0_split_0
I0422 19:44:57.578039  4815 net.cpp:380] fc8-pv_fc8-pv_0_split -> fc8-pv_fc8-pv_0_split_1
I0422 19:44:57.578043  4815 net.cpp:380] fc8-pv_fc8-pv_0_split -> fc8-pv_fc8-pv_0_split_2
I0422 19:44:57.578094  4815 net.cpp:122] Setting up fc8-pv_fc8-pv_0_split
I0422 19:44:57.578097  4815 net.cpp:129] Top shape: 16 38 (608)
I0422 19:44:57.578110  4815 net.cpp:129] Top shape: 16 38 (608)
I0422 19:44:57.578112  4815 net.cpp:129] Top shape: 16 38 (608)
I0422 19:44:57.578114  4815 net.cpp:137] Memory required for data: 1843242752
I0422 19:44:57.578116  4815 layer_factory.hpp:77] Creating layer loss
I0422 19:44:57.578130  4815 net.cpp:84] Creating Layer loss
I0422 19:44:57.578131  4815 net.cpp:406] loss <- fc8-pv_fc8-pv_0_split_0
I0422 19:44:57.578135  4815 net.cpp:406] loss <- label_data_1_split_0
I0422 19:44:57.578137  4815 net.cpp:380] loss -> loss/loss
…
